A2C_Grid_World/storage/DynamicObstacles_1/status.pt (torch, 243139 bytes, 39 tensors)

image_conv.0.weight f4 [16, 3, 2, 2]
0	0x3df49c29	0.11943848
1	0xbe0d374b	-0.13790624
2	0xbc9ce1da	-0.019150663
3	0x3e7a51e6	0.24445304
4	0xbe9a8aab	-0.3018392
5	0x3e189537	0.14900671
6	0xbdc06bd4	-0.093955666
7	0x3e258e96	0.16167673
8	0x3d246023	0.040130746
9	0xbd10c794	-0.035346583
10	0x3da3fa45	0.080067195
11	0x3c69527e	0.014240859
12	0x3e230157	0.1591848
13	0xbe0b3948	-0.1359607
14	0xbd9a3562	-0.07529713
15	0xbd4846bb	-0.04889558
16	0x3d2eefca	0.04270915
17	0x3c9f312c	0.019432627
18	0x3e5dd0b6	0.21661648
19	0x3dc9666f	0.09833991
20	0xbddc2b47	-0.10750442
21	0xbe328872	-0.17434862
22	0xbd4630e4	-0.04838647
23	0xbdff02f1	-0.12451733
24	0xbd8d382f	-0.06895482
25	0x3d0bec56	0.034160934
26	0x3e082173	0.1329401
27	0x3e1f1dcf	0.15538715
28	0xbe880bb4	-0.2657143
29	0x3e47ef56	0.19524893
30	0x3d3e76fd	0.046500195
31	0x3e81699e	0.25275892
32	0x3e431daa	0.19054285
33	0xbe86aaec	-0.26302278
34	0xbe8c87f4	-0.27447474
35	0xbe0e9438	-0.13923728
36	0x3e78c217	0.2429279
37	0xbd9b4e7a	-0.075833276
38	0x3ddbfe62	0.10741879
39	0xbe14184d	-0.14462395
40	0x3e9302d9	0.2871311
41	0xbdf7b563	-0.12095144
42	0x3e41131b	0.18854944
43	0xbc41b1f0	-0.011822209
44	0xbe1bba9f	-0.15207909
45	0x3e17f1cb	0.1483833
46	0xbe1ce986	-0.15323457
47	0x3dade06d	0.084900714
48	0xbde81290	-0.113316655
49	0xbd212445	-0.03934123
50	0xbe9f98ce	-0.31171268
51	0xbe1245f8	-0.14284503
52	0x3e0da3cb	0.13832013
53	0xbd408c55	-0.04700883
54	0x3e84a2db	0.259055
55	0x3e822bc9	0.2542403
56	0xbc5d75a1	-0.013516814
57	0xbe454f6b	-0.19268577
58	0x3e3402e1	0.17579223
59	0x3db77c35	0.089592375
60	0xbe52aef9	-0.2057456
61	0x3ddfaf8a	0.10922153
62	0x3dcd2782	0.10017301
63	0x3e92c1d9	0.2866352
64	0xbe2cc5f9	-0.16872396
65	0xbdf38840	-0.11891222
66	0xbd4c8488	-0.04993108
67	0x3d739884	0.059471622
68	0xbe6056ba	-0.21908084
69	0xbe51c449	-0.20485033
70	0x3e20cf3f	0.15704058
71	0xbd8aa219	-0.06769199
72	0x3dedc991	0.11610711
73	0x3cad6ce4	0.021170087
74	0x3da9904b	0.08279475
75	0x3cf48088	0.029846445
76	0x3daf4964	0.0855892
77	0x3e08ae97	0.1334785
78	0xbe92de32	-0.28685147
79	0x3dede120	0.11615205
80	0xbe4fd877	-0.20297419
81	0xbe5f090e	-0.21780798
82	0x3c8fd0c3	0.0175556
83	0xbd497de1	-0.049192313
84	0x3e53051a	0.20607415
85	0xbe2eef4e	-0.17083475
86	0xbe6e0895	-0.23245461
87	0x3e40a865	0.18814237
88	0x3bc79a18	0.0060913675
89	0x3e1fc612	0.15602902
90	0x3e14d7e2	0.14535478
91	0xbe8f8804	-0.2803346
92	0x3d6d8b79	0.05799434
93	0x3d8e017e	0.06933878
94	0xbe45ec7c	-0.19328493
95	0xbe0c416e	-0.13696834
96	0x3df2aae8	0.11849004
97	0x3bf7bb46	0.0075601665
98	0xbe1e8089	-0.1547872
99	0xbdd156e2	-0.1022165
100	0x3e848942	0.2588597
101	0xbd7d4bd5	-0.061839897
102	0x3e035d49	0.12828554
103	0x3def1770	0.11674392
104	0xbe3f1482	-0.18660167
105	0xbe7b63ca	-0.24549785
106	0x3e8ddf87	0.277096
107	0x3c76f79b	0.015073682
108	0x3e2a005a	0.16601697
109	0x3d1636f6	0.03667351
110	0x3da8adc3	0.082362674
111	0x3e31e78b	0.17373483
112	0x3e78cf4b	0.24297826
113	0xbe62d7c2	-0.22152618
114	0x3c56a71e	0.013101367
115	0x3e3a1998	0.18173826
116	0x3e56253b	0.2091264
117	0x3e37a3e2	0.1793361
118	0xbe55ef08	-0.20891964
119	0xbe54dd7e	-0.20787618
120	0xbe5d3b03	-0.21604542
121	0x3bbdd3f1	0.0057930877
122	0x3ea74747	0.32671568
123	0xbe6768d9	-0.2259859
124	0x3e749ba4	0.23887497
125	0xbe248e35	-0.16069873
126	0xbdde812b	-0.108644806
127	0x3d5df82a	0.054191746
128	0x3e2a516b	0.16632621
129	0x3e893722	0.26799875
130	0xbe3794c5	-0.17927845
131	0x3d804c69	0.06264574
132	0x3e827ae6	0.2548439
133	0x3e6ad7ca	0.2293388
134	0x3df2f8dd	0.11863873
135	0x3e27c64f	0.16384242
136	0x3e3d1c65	0.18467863
137	0x3d55e507	0.05222037
138	0xbe5f8703	-0.21828847
139	0xbe949dd9	-0.29026678
140	0xbe077398	-0.1322769
141	0xbd09afeb	-0.033615034
142	0xbe3530d3	-0.17694406
143	0x3dd84b8d	0.10561285
144	0x3db31031	0.08743323
145	0xbd8c9dcb	-0.06866034
146	0x3df71973	0.12065401
147	0x3dabd4f3	0.08390226
148	0x3e0fba29	0.14035858
149	0x3e43ddb3	0.1912754
150	0xbe023343	-0.12714867
151	0x3e90b73d	0.282648
152	0xbd08b236	-0.03337308
153	0xbc227df1	-0.009917722
154	0xbe8b81ce	-0.2724747
155	0xbe3e414e	-0.185796
156	0xbe15410d	-0.14575596
157	0xbdc87be5	-0.09789256
158	0x3e7a7384	0.24458128
159	0xbdd031a0	-0.10165715
160	0xbe68458a	-0.22682777
161	0x3dcf3b6e	0.10118757
162	0x3dbaed2e	0.0912727
163	0x3e2974e4	0.16548496
164	0xbe18f76c	-0.14938134
165	0x3d802eb6	0.062589094
166	0xbdd73aaa	-0.10509236
167	0xbd84d445	-0.064858
168	0xbe445445	-0.19172771
169	0xbe141d8b	-0.14464395
170	0xbd5cd0e5	-0.053910155
171	0x3e20c599	0.15700378
172	0x3d214b3e	0.039378397
173	0x3d7ecc77	0.06220671
174	0x3e8c9a22	0.27461344
175	0x3e9d5998	0.30732417
176	0x3e499d8b	0.19689004
177	0x3c169be2	0.009192439
178	0xbe4c7ef0	-0.19970298
179	0x3e670451	0.2256024
180	0xbda022af	-0.07819115
181	0xbcf06163	-0.029343313
182	0xbe8267b0	-0.25469732
183	0xbd811397	-0.063025646
184	0xbe3ea91a	-0.18619195
185	0x3e84bdcf	0.25926062
186	0xbe7f8e28	-0.24956572
187	0xbe666aee	-0.22501728
188	0xbc2099fa	-0.009802336
189	0xbe1fd659	-0.15609111
190	0x3dd38a68	0.10329133
191	0xbde39212	-0.11111845

image_conv.0.bias f4 [16]
0	0xbe0e1d68	-0.13878405
1	0xbbd416a4	-0.0064724255
2	0x3e6f2908	0.23355496
3	0xbe754a3d	-0.23954101
4	0x3dc48756	0.09596126
5	0x3e2e439e	0.17017981
6	0x3e952378	0.29128623
7	0xbe486b87	-0.19572268
8	0x3d4dcf5a	0.050246574
9	0xbe728d68	-0.23686755
10	0x3e491a44	0.19638926
11	0xbdbeb105	-0.093111075
12	0x3e172573	0.1476038
13	0x3cd35d2e	0.025801267
14	0xbc8c52d4	-0.01712934
15	0xbc7948ab	-0.015215079

image_conv.3.weight f4 [32, 16, 2, 2]
0	0x3cc2aeae	0.023764934
1	0x3e324300	0.17408371
2	0x3d7fe5e8	0.062475115
3	0x3d2e1400	0.042499542
4	0xbde9a1d8	-0.11407822
5	0x3d8cef6e	0.06881605
6	0x3db06a04	0.08613971
7	0x3d67eb3f	0.056620833
8	0x3d95a941	0.07307673
9	0xbd97c404	-0.07410434
10	0xbd90236c	-0.07038006
11	0x3dae09b3	0.08497944
12	0xbdbe8c49	-0.09304101
13	0x3da3f2c6	0.0800529
14	0xbdc84a6a	-0.09779818
15	0xbdec7245	-0.11545233
16	0x3d8205a9	0.06348736
17	0xbdda6e59	-0.106655784
18	0xbd68be1a	-0.05682192
19	0x3d3baad5	0.045817215
20	0x3d98d8bd	0.074632145
21	0x3e0f28e4	0.13980442
22	0xbd1cf0ee	-0.038315706
23	0xbddf6870	-0.10908592
24	0x3dce90ec	0.100862354
25	0xbd2310c1	-0.0398109
26	0xbd85a7fd	-0.06526182
27	0x3c2900a2	0.010315092
28	0xbdc7fdc1	-0.097651966
29	0x3d9baa8c	0.076008886
30	0x3dc0dd9a	0.09417267
31	0xbde41737	-0.111372404
32	0xbde0a79e	-0.109694704
33	0xbd087a11	-0.033319537
34	0x3d4a218c	0.0493484
35	0xbd0d1ee9	-0.034453306
36	0xbd86e1f8	-0.06586069
37	0x3b0d3628	0.0021547172
38	0xbdf80fcb	-0.12112387
39	0xbdf74887	-0.1207438
40	0xbd94013a	-0.072267964
41	0x3dde958a	0.10868366
42	0x3d7b4cb5	0.06135245
43	0xbcef4af3	-0.029210543
44	0xbcbb55fd	-0.02286815
45	0x3d2fd2f2	0.042925783
46	0xb9d2ed06	-0.00040230918
47	0xbd94c58c	-0.072642416
48	0x3d7154f3	0.058918905
49	0x3d97e251	0.07416213
50	0xbc57c4aa	-0.013169447
51	0xbd21d066	-0.039505385
52	0x3e022f7e	0.1271343
53	0x3de94423	0.11389949
54	0xbe123bbf	-0.14280604
55	0x3dd87727	0.105696015
56	0x3d3ce75e	0.046119086
57	0xbd0214c2	-0.031758077
58	0x3d599677	0.05312201
59	0xbe096bae	-0.13419983
60	0x3de056c1	0.10954047
61	0xbdb0c76f	-0.08631789
62	0x3cf0d10c	0.029396556
63	0x3d03977f	0.0321269
64	0xbad6c729	-0.0016386259
65	0x3dd3a899	0.10334892
66	0xbce14792	-0.027499948
67	0x3baeaaa7	0.005330402
68	0xbe36a7b9	-0.17837419
69	0xbd9239e4	-0.07139948
70	0xbd22d737	-0.039756026
71	0x3c687f70	0.01419054
72	0xbcbc8ba1	-0.023015799
73	0x3cd9313c	0.026512735
74	0x3df3352f	0.11875378
75	0x3d932ef1	0.07186688
76	0xbda69af1	-0.081350215
77	0xbe060015	-0.13085969
78	0xbd9c299a	-0.07625122
79	0x3de6e784	0.11274627
80	0xbd83f5ff	-0.064434044
81	0xba311bde	-0.00067561667
82	0x3bdb6563	0.006695436
83	0xbd94fa41	-0.07274295
84	0x3d8b508d	0.06802473
85	0x3d7199d8	0.058984607
86	0x3c9a2ddc	0.018820696
87	0xbcbe28f7	-0.023212893
88	0xbd568d00	-0.05238056
89	0xba9cfb72	-0.0011976792
90	0xbd3c6475	-0.04599424
91	0xbd45e46b	-0.04831354
92	0xbdb11952	-0.086474076
93	0xbda5a7e1	-0.08088661
94	0x3dd12e09	0.10213859
95	0xbcc144e5	-0.023592422
96	0xbd9e32d9	-0.07724542
97	0xbdd4661e	-0.1037104
98	0xbdcd22a1	-0.100163706
99	0x3de7ab58	0.11311978
100	0x3b0ac3a6	0.0021173744
101	0x3ddb1048	0.10696465
102	0x3afe16e5	0.0019385485
103	0xba64fe1f	-0.0008735377
104	0xbdd993d1	-0.10623897
105	0xbdab16c5	-0.08353952
106	0x3df1fffd	0.11816404
107	0xbdafb3ce	-0.08579217
108	0xbd317c2b	-0.043331306
109	0x3d910b0a	0.07082184
110	0x3dd550de	0.10415815
111	0x3d806d33	0.06270828
112	0xbd023904	-0.031792656
113	0xbc55ca64	-0.013048742
114	0xbc62fdc9	-0.013854452
115	0xbcf03fbb	-0.029327264
116	0x3da8c469	0.08240587
117	0xbd9ab1d7	-0.075534515
118	0xbd2adfe0	-0.04171741
119	0x3d6de5cc	0.05808048
120	0xbdefa7fc	-0.11701962
121	0xbd3e04fc	-0.046391472
122	0x3daa7d7d	0.08324716
123	0x3d91ad2f	0.0711311
124	0x3dce1e2c	0.100643486
125	0xbda2ddff	-0.07952499
126	0xbb8c4c9a	-0.0042815926
127	0xbcff5fe3	-0.031173652
128	0xbcdc1b5d	-0.026868517
129	0xbd0c2ab3	-0.03422041
130	0x3ce04264	0.027375408
131	0xbd1bee0c	-0.038068816
132	0xbdc3cf8f	-0.09561073
133	0xbdb96394	-0.09052196
134	0xbdcb8562	-0.0993755
135	0x3e154703	0.1457787
136	0xbd09ca54	-0.03364022
137	0xbce28325	-0.027650425
138	0xbd2e3865	-0.04253425
139	0xbd83b361	-0.06430698
140	0xbe22b902	-0.15890887
141	0xbdc2d79d	-0.09513781
142	0x3d1a59be	0.03768324
143	0x3cdba890	0.026813775
144	0xbdac8d9f	-0.084254496
145	0xbd5b67c7	-0.053565767
146	0x3dd0b5ce	0.101909265
147	0x3def11c9	0.11673314
148	0x3e0986fa	0.13430396
149	0x3d479617	0.04872712
150	0x3d51129c	0.051043138
151	0xbd2c054b	-0.041997235
152	0xbdcbc53e	-0.0994973
153	0xbe164eab	-0.14678447
154	0x3d4db96a	0.050225653
155	0xbcf58f01	-0.029975416
156	0x3da68419	0.081306644
157	0xba9b5dfc	-0.0011853571
158	0xbe372528	-0.17885268
159	0xbda413ae	-0.08011566
160	0xbc32a763	-0.010904166
161	0xbd52fdd8	-0.051511616
162	0xbe08cf29	-0.13360275
163	0x3d66d1ae	0.05635231
164	0xbc8482eb	-0.016175708
165	0xbd64fec5	-0.05590703
166	0x3d059199	0.032609556
167	0x3d0220cc	0.03176956
168	0xbd6554ac	-0.055988953
169	0x3de350d7	0.11099403
170	0xbcd9a5ea	-0.026568372
171	0xbce5311c	-0.027977519
172	0xbc88de17	-0.016707463
173	0xbdd10a5c	-0.10207054
174	0x3da22f5f	0.079191916
175	0xbd5678b3	-0.0523612
176	0xbdff89d0	-0.124774575
177	0x3d701e70	0.058622777
178	0x3cf9c07c	0.030487292
179	0x3cf98e16	0.03046326
180	0xbcc694c1	-0.024240853
181	0xbbaef1ee	-0.005338899
182	0x3ca572d8	0.020196363
183	0x3de5395c	0.11192581
184	0xbc47a1c9	-0.012184569
185	0xbd7a9205	-0.06117441
186	0x3e0bc1bf	0.13648127
187	0x3c7b1dce	0.01532693
188	0x3dbe3c70	0.09288871
189	0x3cc9a05d	0.0246126
190	0x3dd97d4d	0.10619602
191	0x3d87d7f5	0.066329874
192	0xbdbb6156	-0.09149425
193	0xbc6270d0	-0.013820842
194	0x3c53c41c	0.012925174
195	0xbd81b5ae	-0.06333481
196	0xbc24667f	-0.010034203
197	0xbe16ff96	-0.14745936
198	0xbd97e5de	-0.074168906
199	0xbdc1fe06	-0.09472279
200	0x3da49f47	0.08038192
201	0xbd760032	-0.06005878
202	0xbcb5ddc5	-0.022200475
203	0x3d88bf40	0.06677103
204	0x3da5f43e	0.08103226
205	0xbe003ac5	-0.12522419
206	0x3d444a9f	0.047922727
207	0x3d2a362e	0.041555576
208	0xbdcd7167	-0.100313954
209	0x3dce2cd1	0.10067142
210	0xbda7a900	-0.08186531
211	0xbd70c06c	-0.058777258
212	0xbdc9a3f5	-0.098457254
213	0x3da51044	0.08059743
214	0x3d0e27ed	0.034706045
215	0x3dec222a	0.11529954
216	0x3c3ff7ea	0.011716822
217	0x3d570ff7	0.05250546
218	0xbd2d67f9	-0.042335484
219	0xbdc5d91e	-0.096605524
220	0x3d1446be	0.036200278
221	0xbd24f054	-0.040268257
222	0xbd29e811	-0.04148108
223	0xbd63f3d5	-0.05565246
224	0x3ca055e9	0.019572215
225	0x3b8f7574	0.004378015
226	0x3d15e0ee	0.036591463
227	0xbdd744fc	-0.105112046
228	0x3d941de5	0.072322644
229	0xbc937209	-0.017998712
230	0x3dae5c37	0.08513682
231	0x3d9acd60	0.075587034
232	0xbdcca78d	-0.09992895
233	0x3dac4a14	0.08412567
234	0xbdc48fc9	-0.09597737
235	0x3dd9b08c	0.10629377
236	0x3c956124	0.018234797
237	0x3d1c9615	0.038229067
238	0xbda4139f	-0.08011555
239	0x3db77459	0.089577384
240	0xbd81aad4	-0.06331411
241	0xbe058880	-0.13040352
242	0x3d208561	0.0391897
243	0x3d98af9b	0.07455369
244	0x3db75d89	0.08953387
245	0xbd83269b	-0.06403848
246	0x3df21234	0.11819878
247	0x3de54922	0.111955896
248	0xbd90efca	-0.07076986
249	0xbe0b79d1	-0.13620688
250	0x3d80848c	0.06275281
251	0xbd5c9bb6	-0.053859435
252	0x3d8196de	0.06327604
253	0xbdcf13cd	-0.101111986
254	0x3dc6fae8	0.09715825
255	0x3d31916f	0.043351587

image_conv.3.bias f4 [32]
0	0xbcfc988c	-0.030834459
1	0xbca273bb	-0.019830575
2	0x3c1ae2aa	0.009453455
3	0xbd82e789	-0.06391818
4	0xbd062fe3	-0.032760512
5	0xbd15bcd4	-0.036557034
6	0xbdbffeb2	-0.09374751
7	0x3cf7f26b	0.030266961
8	0x3cf804df	0.03027576
9	0x3dbf7126	0.09347753
10	0x3ceb7407	0.02874185
11	0xbd0cae11	-0.03434569
12	0xbdcf5d81	-0.10125256
13	0xbdc445cc	-0.09583625
14	0xbcde1bd0	-0.027112871
15	0xbddccb22	-0.10780932
16	0x3bcdb4ad	0.0062776417
17	0x3e09d42d	0.13459845
18	0x3d8a56f2	0.06754865
19	0xbd0ba36b	-0.034091394
20	0xbb11556f	-0.0022176167
21	0x3e050fab	0.12994258
22	0xbd4189ba	-0.047250487
23	0xbdc98e06	-0.09841542
24	0xbcda91cc	-0.02668085
25	0x3c349aac	0.011023205
26	0xbdac11f9	-0.084018655
27	0xbd47a6b9	-0.048742983
28	0xbdd27565	-0.102762975
29	0x3c71d5f3	0.014760482
30	0xbdcab9cf	-0.098987214
31	0x3c58f4fd	0.0132420035

image_conv.5.weight f4 [64, 32, 2, 2]
0	0x3d97acd7	0.074060135
1	0xbd46d83f	-0.048546072
2	0xbc823eca	-0.01589908
3	0x3b66f308	0.0035240073
4	0xbcc2d5b6	-0.023783546
5	0x3ca3d827	0.02000053
6	0xbc036b71	-0.0080212215
7	0xbbb65011	-0.005563744
8	0xbba75c63	-0.005107449
9	0x3d40313f	0.046921965
10	0x3c8ff4b2	0.017572735
11	0xbd847f03	-0.06469538
12	0x3d3ea653	0.046545338
13	0xbc756793	-0.014978307
14	0x3d78073f	0.060553785
15	0xbdd4ab0e	-0.103841886
16	0xbb863838	-0.0040960573
17	0x3d6328a7	0.05545869
18	0x3dbbb8ad	0.091660835
19	0x3c40185c	0.011724558
20	0xbd2e70d9	-0.04258809
21	0xbd7c155d	-0.06154381
22	0xbd7b90d2	-0.06141741
23	0x3d9dd936	0.07707445
24	0xbda115e8	-0.078655064
25	0xbd13900c	-0.036026046
26	0x3d2a2271	0.041536752
27	0x3d414094	0.047180727
28	0xbd5ec4a2	-0.054386742
29	0x3d20ebbd	0.039287318
30	0x3d12cb97	0.03583869
31	0x3de36856	0.11103885
32	0xbc1395f1	-0.009007917
33	0x3ce5f20e	0.028069522
34	0x3939770a	0.0001768732
35	0x3d9c40b1	0.076295264
36	0xbc254b1e	-0.01008871
37	0xbd4725ee	-0.048620157
38	0x3cbc5164	0.022988029
39	0xbd2c60a2	-0.042084344
40	0x3cf7eb65	0.030263612
41	0x3d5cc074	0.053894475
42	0xbd245e87	-0.04012921
43	0xbd9b833c	-0.0759339
44	0x3bd988db	0.006638629
45	0x3bbf0268	0.0058291443
46	0xbcec03c9	-0.028810399
47	0x3d82bcd5	0.06383673
48	0x3d12e5e0	0.035863757
49	0xbcdfec2e	-0.027334299
50	0x3c926a2f	0.017872898
51	0xbc708d32	-0.014682101
52	0xbd82cbd2	-0.06386532
53	0x3d38d30d	0.04512315
54	0x3a2dc767	0.00066291395
55	0xbc12e7ab	-0.008966367
56	0x3d48e33c	0.049044833
57	0xbdb17cdd	-0.08666394
58	0x3b4edcdc	0.0031564748
59	0x3d9a7a90	0.07542908
60	0x3d2265e0	0.039647937
61	0xbd307b37	-0.043086257
62	0x3c972d48	0.018454209
63	0xbda7105e	-0.08157419
64	0x3bf043ca	0.0073323
65	0x3d8e2b31	0.06941832
66	0x3d956aea	0.07295783
67	0xbb4080c6	-0.002937363
68	0x3d1b87a1	0.037971143
69	0x3be5a877	0.007008608
70	0xbc9bd84e	-0.01902404
71	0x3b0eeebc	0.0021809777
72	0xbd5431a5	-0.051805157
73	0x3cea751e	0.028620299
74	0x3d2864b7	0.041111674
75	0xbcc17902	-0.023617271
76	0xbcaab1e8	-0.020836785
77	0xbd6ca92a	-0.057778515
78	0x3c810733	0.015750503
79	0x3cf20be4	0.029546686
80	0x3d49c692	0.049261637
81	0xbd53df69	-0.051726732
82	0xbd46e172	-0.048554845
83	0xbbd63736	-0.0065373434
84	0x3da93e44	0.08263829
85	0x3ba2adfc	0.004964588
86	0x3cbe48c0	0.02322805
87	0x3c37f61f	0.011228113
88	0x3c8f7bdd	0.017515117
89	0x3db0216a	0.08600123
90	0x3da03dc0	0.07824278
91	0xbd81878a	-0.0632468
92	0xbc46ddc8	-0.012137838
93	0xbd5332b6	-0.051562034
94	0xbbbf2efb	-0.005834458
95	0xbb0761b2	-0.0020657596
96	0x3d8e3773	0.0694417
97	0xbdb84ef1	-0.08999432
98	0x3d89bc16	0.06725328
99	0xbd3b9119	-0.045792673
100	0xbb9fde7a	-0.004878816
101	0x3a799db7	0.00095220975
102	0x3d7351dd	0.059404243
103	0xbdd0f487	-0.1020289
104	0xbd246355	-0.040133793
105	0xbc839f05	-0.016067037
106	0xbb75ab6a	-0.0037486204
107	0xbd037a14	-0.032098845
108	0x3c39f5bb	0.011350091
109	0xbbb18522	-0.005417482
110	0xbd9344a1	-0.07190824
111	0x3c08a26f	0.008339508
112	0xbc9420f0	-0.018082112
113	0x3cc7871d	0.02435642
114	0x3d5eb123	0.05436815
115	0x3d39e3f6	0.045383416
116	0x3d570e33	0.052503776
117	0xbd762f67	-0.0601038
118	0xbdb2059a	-0.08692475
119	0x3c2ff8f0	0.010740504
120	0x3ccc055f	0.024904905
121	0xbda5f21d	-0.0810282
122	0x3d8dd5a7	0.069255166
123	0xbc329c33	-0.010901499
124	0xbd295191	-0.041337553
125	0x3d91872a	0.071058586
126	0x3da27bde	0.07933782
127	0x3cac9057	0.02106492
128	0xbd13c2ac	-0.036074325
129	0x397fb83d	0.00024387329
130	0xbd857066	-0.06515579
131	0x3d47b910	0.048760474
132	0x3cf99334	0.0304657
133	0xbce0c264	-0.027436443
134	0xbdc187d9	-0.09449739
135	0x3d55540f	0.052082118
136	0xbd941652	-0.0723082
137	0xbd3e1d57	-0.0464147
138	0x3d408c87	0.047009017
139	0xbd33ed85	-0.04392769
140	0x3c316e0f	0.010829463
141	0x3d890516	0.06690423
142	0xbc907d41	-0.01763785
143	0xbcf3158e	-0.029673364
144	0x3d8d0300	0.06885338
145	0x3c77611a	0.015098834
146	0xbb2f7109	-0.0026770255
147	0xbd379b26	-0.044825695
148	0xbd9c2b5a	-0.07625456
149	0x3c62b4d9	0.013837063
150	0xbd5604fc	-0.052250847
151	0xbd3b3dad	-0.045713115
152	0xbda52bba	-0.08064981
153	0x3d8dd32c	0.069250435
154	0xbd85f1d0	-0.06540263
155	0x3c26eea1	0.0101887295
156	0x3c94fcf1	0.018187018
157	0x3d7a0da0	0.06104815
158	0x3d2e506f	0.042557176
159	0xbd7d7802	-0.061882026
160	0x3cd8e235	0.026475051
161	0xbd550c08	-0.052013427
162	0xbb525207	-0.003209235
163	0xbd206df7	-0.03916737
164	0xbda6acc3	-0.081384204
165	0x3ca9e369	0.02073832
166	0xbd84772f	-0.06468045
167	0x3d9ac11a	0.075563625
168	0x3d11e7f7	0.03562161
169	0xbd149c1d	-0.036281694
170	0xbd540179	-0.051759217
171	0xbdb25f3f	-0.08709573
172	0xbd54ac16	-0.051921926
173	0xbd81f0ee	-0.06344782
174	0x3a9a5418	0.001177433
175	0x3c7bc071	0.015365706
176	0x3d9cfb4f	0.07665121
177	0x3c42a8ff	0.011881112
178	0xbc9315b3	-0.017954683
179	0xbd21697c	-0.03940724
180	0xbd2f0d83	-0.042737495
181	0x3d3f5fac	0.0467221
182	0xbdd11246	-0.102085635
183	0xbdb16ecf	-0.08663713
184	0x3c2b30e6	0.01044867
185	0xbd071770	-0.032981336
186	0xbcd64d7f	-0.02616
187	0xbda7338c	-0.08164129
188	0xbd8438e8	-0.064561665
189	0xbd933cab	-0.07189306
190	0xbd7413f6	-0.05958935
191	0xbda58275	-0.08081523
192	0xbd62eba9	-0.055400524
193	0x3d5afe4e	0.05346518
194	0xbd5fbee2	-0.0546254
195	0x3d89976b	0.06718334
196	0xbdc3b803	-0.09556582
197	0x3aedaec1	0.0018133746
198	0xbd49338c	-0.049121425
199	0xbd9594b9	-0.07303757
200	0xbcf856be	-0.0303148
201	0x3d7a4192	0.06109769
202	0xbd239282	-0.039934643
203	0x3da63e4c	0.08117351
204	0xbd0abd9b	-0.033872228
205	0xbd78baa4	-0.06072487
206	0x3d19bc3e	0.037533037
207	0x3d5f6b47	0.054545667
208	0x3d84ed6a	0.06490596
209	0x3cde6796	0.027149003
210	0xbda1cb4e	-0.079001054
211	0xbcc2b6f5	-0.023768881
212	0x3b381b30	0.0028092377
213	0xbd3cefb7	-0.046127047
214	0x3d0ff17a	0.0351424
215	0xbccfca7a	-0.025365103
216	0xbdc44081	-0.09582616
217	0xbd3c71bc	-0.046006903
218	0xbd822895	-0.06355397
219	0x3ce67e73	0.028136468
220	0xbd83b9c6	-0.06431918
221	0xbd11d697	-0.03560504
222	0xbad6032a	-0.0016327847
223	0x39bf42a8	0.00036480022
224	0xbd971b52	-0.07378258
225	0x3d605f31	0.05477828
226	0xbd685624	-0.056722775
227	0xbd9a9545	-0.07548002
228	0x3cc0bc85	0.023527393
229	0xbd9a8e27	-0.07546645
230	0x3cc5d346	0.024148595
231	0x3d044691	0.03229386
232	0xbd2fb94b	-0.04290132
233	0xbc9ef270	-0.019402713
234	0xbd25806c	-0.040405676
235	0xbd036061	-0.032074336
236	0xbd223d47	-0.03960922
237	0xbc402fcb	-0.011730145
238	0xbd8dba6d	-0.069203235
239	0xbda2aa34	-0.0794262
240	0xbd67872b	-0.05652539
241	0x3c747e65	0.014922713
242	0x3c147dd7	0.009063206
243	0xbd363ffd	-0.044494618
244	0xbd3ce721	-0.04611886
245	0xbc15408f	-0.00910963
246	0x3d6aaec8	0.05729559
247	0xbdae5fb2	-0.08514346
248	0xbd3898e5	-0.045067687
249	0xbc959e61	-0.018263998
250	0xbca5be2f	-0.020232288
251	0xbd3f38e7	-0.046685126
252	0x3d1cea91	0.038309637
253	0xbd0815ef	-0.033224043
254	0x3b5e4541	0.003391579
255	0xbd78e1a9	-0.06076208

image_conv.5.bias f4 [64]
0	0x3cd3319a	0.025780488
1	0xbca8ecd8	-0.020620748
2	0xbd08a14e	-0.033356957
3	0x3cca4e62	0.024695579
4	0xbd5e90dd	-0.05433737
5	0xbc34ee1b	-0.011043097
6	0x3cedb423	0.02901656
7	0xbd231d0d	-0.039822627
8	0x3d4423f3	0.047885846
9	0xbd5c144a	-0.053730287
10	0x3c39f842	0.011350693
11	0x3d54a072	0.051910825
12	0xbd2d2abd	-0.042277087
13	0xbd2538f5	-0.04033752
14	0xbcd6cb9b	-0.026220134
15	0xbd58f5e8	-0.05296889
16	0xbd9f6a90	-0.07783997
17	0x3ced0b8d	0.028936172
18	0x3d88efe1	0.06686378
19	0x3c1c5169	0.009540894
20	0xbbc3b49c	-0.005972458
21	0x3c895972	0.016766284
22	0xbda82d9b	-0.082118236
23	0xbbd5b342	-0.0065216133
24	0x3b5b43d8	0.0033457186
25	0xbc8e4df5	-0.017371157
26	0x3d7f5e6c	0.062345907
27	0x3d6aef5d	0.05735718
28	0x3d98cc16	0.07460801
29	0xbdacda38	-0.084400594
30	0x3d20bd27	0.03924289
31	0x3c4d7b28	0.01254157
32	0xbd70d2f4	-0.05879493
33	0xbdcfb089	-0.10141093
34	0x3d665464	0.056232825
35	0xbd352fea	-0.044235148
36	0xbd9e34a6	-0.07724886
37	0xbdae0025	-0.08496121
38	0xbcd19dec	-0.025587998
39	0x3ca0e5a6	0.019640755
40	0xbb0f1415	-0.0021832038
41	0xba7fab9e	-0.0009753051
42	0xbbda664d	-0.0066650272
43	0x3d1c5a23	0.0381719
44	0xbd01a9a0	-0.031655908
45	0x3ddffe8e	0.10937224
46	0x3d83a375	0.06427661
47	0xbd1ea485	-0.038731117
48	0xbb7246eb	-0.003696854
49	0xbd2fe8be	-0.04294657
50	0xbd5c6e3d	-0.05381607
51	0xbd9bbbb2	-0.076041594
52	0x3da18d0c	0.07888231
53	0x3ca07951	0.019589098
54	0xbdb8f568	-0.090311825
55	0x3d678469	0.05652276
56	0xbdbbfe9c	-0.09179422
57	0x3d6ab552	0.057301827
58	0xbbb29343	-0.005449684
59	0xbd65ea13	-0.056131434
60	0xbc48479a	-0.012224102
61	0xbd7212a5	-0.059099812
62	0x3d5653dd	0.052326072
63	0xbda15764	-0.078779966

actor.0.weight f4 [64, 64]
0	0xbe7f5896	-0.24936137
1	0xb86ab4e3	-5.595841e-05
2	0x3d6e009d	0.058106054
3	0x3e220e9a	0.15825883
4	0xbccd09af	-0.025029032
5	0x3c7f9c8b	0.015601288
6	0x3d537e99	0.051634405
7	0x3c9181df	0.017762123
8	0xbd76d6b8	-0.060263366
9	0xbc85f516	-0.016352218
10	0x3e310689	0.17287649
11	0xbc59cde4	-0.013293717
12	0xbde12662	-0.10993649
13	0x3e99c7dd	0.30035296
14	0x3b812cf7	0.003942128
15	0x3b8d9066	0.004320192
16	0xbd8c1c77	-0.06841367
17	0x3e38ba9b	0.18039934
18	0x3e2ecbdb	0.17069952
19	0x3d2cee16	0.042219244
20	0xbe6a4296	-0.22876963
21	0xbdb39196	-0.08768003
22	0xbdea26c7	-0.114331774
23	0xbdc3b6c2	-0.09556343
24	0x3e02d00c	0.12774676
25	0xbc8c8c33	-0.017156696
26	0xbd42b6eb	-0.047537725
27	0xbe2dedc5	-0.16985233
28	0xbc8dd21b	-0.0173121
29	0x3bacd13f	0.0052739675
30	0xbe2bab88	-0.16764653
31	0x3de56210	0.112003446
32	0xbdee4fa9	-0.11636288
33	0x3e4a239c	0.19740146
34	0xbe34de35	-0.1766289
35	0x3d1b5e9e	0.03793203
36	0x3e1ce653	0.15322237
37	0x3c479b88	0.012183078
38	0x3ea381f6	0.3193509
39	0x3e9543fb	0.29153427
40	0xbe9602d4	-0.29299033
41	0x3dc38043	0.09545948
42	0x3c97ecb7	0.018545492
43	0x3e342e8f	0.17595886
44	0xbda33c1c	-0.07970449
45	0xbd8dcfc7	-0.06924396
46	0xbc58865a	-0.013215626
47	0x3ddd2c20	0.10799432
48	0xbe33568e	-0.17513487
49	0x3e3bf8d7	0.18356644
50	0xbd73ef38	-0.05955431
51	0x3c6a59f8	0.014303677
52	0xbc70bfb3	-0.014694142
53	0xbe1b1816	-0.15145907
54	0x3dc587bb	0.09645029
55	0x3e13adb4	0.14421731
56	0xbdc1b6d3	-0.09458699
57	0xbdb2f1f6	-0.08737557
58	0x3bad8681	0.005295575
59	0x3e1f91d5	0.15582974
60	0x3e0e3d8b	0.13890664
61	0x3dc3431a	0.09534283
62	0xbe8b7175	-0.27234998
63	0x3e4659a6	0.19370136
64	0xbce99937	-0.028515441
65	0xbd727339	-0.059191916
66	0x3e07e0fe	0.13269421
67	0xbda1f698	-0.07908362
68	0x3c9aba1f	0.018887578
69	0xbc9f4ab8	-0.019444808
70	0x3e0467ae	0.12930176
71	0xbc24966f	-0.010045632
72	0x3e9b93f4	0.30386317
73	0x3d1a02a3	0.03760017
74	0x3e3d1b39	0.18467416
75	0xbd32b6f9	-0.043631528
76	0xbb78a530	-0.0037940256
77	0xbe05d131	-0.13068081
78	0x3e38a491	0.18031527
79	0xbe411414	-0.18855315
80	0x3caa1885	0.020763645
81	0xbd023116	-0.031785093
82	0x3e20f652	0.15718964
83	0x3e726efc	0.2367515
84	0x3d48c991	0.049020354
85	0x3c59c861	0.013292403
86	0x3e326681	0.17421915
87	0x3d3156a2	0.04329551
88	0x3e125f94	0.14294273
89	0xbdaa3b6a	-0.083121136
90	0xbe207975	-0.15671332
91	0x3d830517	0.06397455
92	0x3dfcc45a	0.123421386
93	0xbd7d495d	-0.061837543
94	0x3e3cb29a	0.18427506
95	0x3d9d625b	0.076847754
96	0x3d7c7581	0.061635498
97	0x38f6a7ea	0.000117614705
98	0xbdedd8d8	-0.11613625
99	0x3dbaa005	0.091125526
100	0xbe3d357f	-0.18477438
101	0xbd850d0b	-0.064966284
102	0xbda15166	-0.07876854
103	0xbcd4e8e6	-0.02598996
104	0xbe1a2155	-0.15051778
105	0x3e363771	0.17794587
106	0xba1ee09d	-0.00060606917
107	0xbda10a04	-0.078632385
108	0x3e8fde19	0.28099135
109	0x3d5935e0	0.053029895
110	0x3d27a6ea	0.040930666
111	0xbcbf8ce0	-0.023382604
112	0xbd5f341b	-0.05449305
113	0x3aed3ada	0.0018099204
114	0x3e3c64cb	0.18397824
115	0x3e3a05c0	0.18166256
116	0x3e63ad65	0.22234114
117	0xbd9cbbc7	-0.07653003
118	0xbe3e8adf	-0.18607663
119	0x3d990f8e	0.0747367
120	0x3e835ef0	0.2565837
121	0xbd6d6d4e	-0.05796557
122	0x3d2f7b2a	0.042842068
123	0x3dff6a9a	0.124715045
124	0xbd3a7e6b	-0.045530718
125	0x3d658553	0.05603535
126	0x3d7d2fe4	0.06181325
127	0x3baaf328	0.0052169748
128	0x3e3f4015	0.18676789
129	0x3e7c71f7	0.24652849
130	0x3e53dd14	0.20689803
131	0x3d242e49	0.040083203
132	0x3d815ef5	0.0631694
133	0x3d30e349	0.043185506
134	0xbdb60cc6	-0.08889155
135	0xbe545e90	-0.20739198
136	0xbe5ebe83	-0.21752362
137	0x3e054be1	0.13017227
138	0x3d986e32	0.07442893
139	0xbe01f1d5	-0.12689908
140	0xbdccb487	-0.0999537
141	0xbe092fbf	-0.1339712
142	0x3ddac6e1	0.106824644
143	0xbe24d6d7	-0.1609758
144	0x3e9fe33a	0.31228048
145	0x3d825119	0.063631244
146	0x3c6c924a	0.014439175
147	0x3ca00e74	0.019538142
148	0xbdfdbb8e	-0.12389289
149	0x3dc1218e	0.09430228
150	0x3cc27faf	0.023742525
151	0x3d73fdec	0.05956833
152	0x3bbc37cd	0.0057439567
153	0xbb16d59a	-0.00230155
154	0xbe2fc012	-0.17163113
155	0xbe1799b4	-0.14804727
156	0x3e9212a8	0.2852986
157	0xbd44e412	-0.048069067
158	0x3dd3a610	0.10334408
159	0xbe4537b4	-0.1925953
160	0x3cea2007	0.028579725
161	0xbe2f9fb6	-0.17150769
162	0xba415da1	-0.00073763175
163	0x3d9df684	0.07713035
164	0xbdf6a8da	-0.12043925
165	0x3d168141	0.03674436
166	0xbe8cf26f	-0.27528712
167	0x3d867ee5	0.06567172
168	0x3d654232	0.055971332
169	0x3c994f9a	0.018714715
170	0xbddc29dd	-0.10750172
171	0x3d53636b	0.051608484
172	0xbe877a56	-0.26460522
173	0x3d107061	0.035263423
174	0xbd2dbc3a	-0.042415835
175	0x3e1e6207	0.15467082
176	0x3d127749	0.03575829
177	0xbe7fb3fe	-0.24971005
178	0xbdc72cf0	-0.09725368
179	0xbc9d651f	-0.019213257
180	0x3d20e32a	0.03927914
181	0x3cd9c2dc	0.026582174
182	0x3d050804	0.032478347
183	0x3e117bd3	0.14207391
184	0x3d82a607	0.063793235
185	0x3b842f09	0.0040339273
186	0x3cd4a7e4	0.025958963
187	0xbe2107a9	-0.15725578
188	0x3d04cb79	0.03242061
189	0x3e0365d2	0.1283181
190	0xbd847c1e	-0.06468986
191	0xbce2f9b5	-0.02770696
192	0xbd2d48cc	-0.042305753
193	0x3bd47ef7	0.006484862
194	0x3d9d2a05	0.0767403
195	0x3df0f5ee	0.11765657
196	0xbe217cf6	-0.15770325
197	0x3e0d7d4b	0.13817327
198	0x3e913985	0.28364196
199	0x3c5b23f5	0.013375272
200	0xba3c5d71	-0.0007185555
201	0x3d135a6f	0.035974916
202	0x3e5e8fe4	0.21734577
203	0x3e7695b5	0.24080546
204	0xbe7477c2	-0.23873809
205	0xbdd8e77a	-0.10591026
206	0xbe4009c2	-0.18753722
207	0xbbaf84ea	-0.0053564208
208	0x3d67593a	0.056481577
209	0x3e87cce5	0.2652351
210	0x3c0f666f	0.008752449
211	0x3e4133d8	0.18867433
212	0x3cebfe1a	0.028807689
213	0x3dd5b9fc	0.10435864
214	0xbd2a558f	-0.0415855
215	0xbdf5c7df	-0.12001013
216	0xbd372749	-0.0447152
217	0x3d4a0c24	0.049327984
218	0xbdad5345	-0.08463148
219	0xbe584b4f	-0.21122478
220	0x3e448dcf	0.1919472
221	0x3d8353ed	0.06412492
222	0x3c869ed4	0.016433157
223	0xbca6e957	-0.020374937
224	0x3e005e46	0.12535962
225	0xbad60f3a	-0.0016331442
226	0x3e842cd3	0.25815448
227	0x3c785598	0.015157126
228	0x3db48e65	0.08816222
229	0x3e090560	0.13380957
230	0x3e68e81b	0.22744791
231	0xbdca7c7b	-0.09887024
232	0xbb8121c2	-0.003940792
233	0xbd9c49d9	-0.07631273
234	0x3dadc307	0.08484464
235	0x3e15b6ef	0.14620565
236	0xbe0e5848	-0.13900864
237	0x3e2a8318	0.16651571
238	0x3d897b96	0.06713025
239	0xbb8a457d	-0.0042197094
240	0x3e5cb00a	0.21551529
241	0x3dfb46ed	0.122693874
242	0xbde3ae87	-0.11117273
243	0xbcf59d05	-0.0299821
244	0xbd8c3b4a	-0.06847246
245	0x3d728522	0.059208997
246	0x3e569a0a	0.20957199
247	0xbd1004c1	-0.035160784
248	0x3e00bb00	0.12571335
249	0x3d85799b	0.06517335
250	0xbe94692a	-0.28986484
251	0x3c04f934	0.008116055
252	0xbe11bdeb	-0.14232604
253	0xbe8841a4	-0.2661258
254	0xbd8ef795	-0.06980816
255	0x3d7cbfee	0.061706476

actor.0.bias f4 [64]
0	0xbc058892	-0.008150237
1	0xbaf30add	-0.0018542666
2	0x3b30e6ea	0.0026993104
3	0xbc06176e	-0.008184297
4	0x3b0e5f21	0.0021724182
5	0x3b24fd3a	0.002517535
6	0xbc0750cf	-0.008259012
7	0xba05aa51	-0.00050989265
8	0xbc0b3e33	-0.008498716
9	0x3a8468db	0.001010205
10	0xbbaf8704	-0.0053566713
11	0xbabbbedf	-0.0014323852
12	0xbb4f8bbd	-0.0031668984
13	0xbc4c70f5	-0.012478103
14	0xbbaeb5f8	-0.005331751
15	0x3be744cb	0.0070577613
16	0xbac17fa6	-0.0014762774
17	0x3a840f55	0.001007537
18	0xbbad7d4b	-0.005294477
19	0xbbc84386	-0.006111565
20	0x3c37aea4	0.011211071
21	0x3b383a70	0.0028111003
22	0xb83a8a3a	-4.447459e-05
23	0xbc1b869a	-0.009492541
24	0x3bdaf1c5	0.006681653
25	0xbc0c66e9	-0.008569458
26	0x39a264b0	0.00030974066
27	0xbba0d9ac	-0.004908761
28	0xb79c39a6	-1.8623494e-05
29	0x3c18a814	0.009317417
30	0x3b49041f	0.0030672622
31	0x3bc8e4b6	0.00613078
32	0x3b337c03	0.002738715
33	0xbba5ae9c	-0.0050562155
34	0xbb25859e	-0.0025256644
35	0xbbb223f4	-0.005436415
36	0x3c27deae	0.010245962
37	0xbbcef6ec	-0.0063160565
38	0x394ea026	0.00019705351
39	0xbb10e298	-0.0022107717
40	0xbb16c41b	-0.0023005072
41	0x3bb63925	0.0055610114
42	0xbbd48c63	-0.006486462
43	0xbb9c7696	-0.0047748787
44	0x3b36c069	0.0027885681
45	0x3b661bf1	0.003511187
46	0xbb58288f	-0.003298316
47	0x3c0332ba	0.0080077
48	0xbb1822db	-0.0023214135
49	0xbbea3ec8	-0.0071485974
50	0xbba07807	-0.004897121
51	0xbbb1c18f	-0.0054246853
52	0x3c007de0	0.007842511
53	0x3a39ab79	0.00070827414
54	0xbac48072	-0.0014991893
55	0x3b74309c	0.0037260419
56	0x38c7df6c	9.530675e-05
57	0xba981234	-0.0011602105
58	0xbbe2cbcb	-0.0069212667
59	0xbc18492f	-0.009294792
60	0x3b6c96eb	0.0036100696
61	0xbae65178	-0.0017571887
62	0x3ba035d9	0.0048892316
63	0x3a1fd300	0.000609681

actor.2.weight f4 [3, 64]
0	0x3e0dda0b	0.13852708
1	0x3e65ef15	0.22454484
2	0xbe1e61dc	-0.15467018
3	0xbd7849b2	-0.060617156
4	0x3d7ac4de	0.061222903
5	0xbe2b63a0	-0.16737223
6	0x3e6f1faa	0.23351923
7	0xbd6a5961	-0.057214145
8	0xbc0cb3ba	-0.008587772
9	0xbda7bb6e	-0.08190046
10	0x3d34eaba	0.044169165
11	0x3e02f8f1	0.12790276
12	0xbc9be922	-0.019032065
13	0x3e2efe40	0.17089176
14	0xbc62efca	-0.0138511155
15	0xbd811e0f	-0.06304561
16	0xbe60b065	-0.21942289
17	0xbe02656c	-0.12734002
18	0x3de96fe2	0.11398293
19	0xbcccb1c7	-0.024987115
20	0xbe0640ff	-0.13110732
21	0x3cc52d3a	0.024069417
22	0xbd9869ec	-0.07442078
23	0x3bca88bd	0.0061808513
24	0xbcbc1c1d	-0.022962624
25	0x3da80f8a	0.08206089
26	0xbd33062a	-0.04370705
27	0x3d3afb10	0.045649588
28	0xbc9f48f2	-0.019443963
29	0xbdd614de	-0.10453199
30	0xbdf15e23	-0.11785533
31	0x3dc1ff40	0.09472513
32	0x3e0b2b20	0.1359067
33	0x3eb03e84	0.34422696
34	0x3cf28d95	0.029608527
35	0x3e1224e4	0.14271885
36	0xbd2a1c94	-0.04153116
37	0x3d5b8722	0.05359567
38	0xbe596b29	-0.21232285
39	0x3df90ccc	0.12160644
40	0xbd95b833	-0.07310524
41	0xbda0fd00	-0.07860756
42	0x3da043c2	0.07825424
43	0x3e1d0153	0.15332536
44	0xbe567e19	-0.2094654
45	0xbdaf5aea	-0.08562262
46	0xba1e89ae	-0.00060477376
47	0xbe8306c0	-0.25591087
48	0x3da60134	0.08105698
49	0xbd93c5d7	-0.07215469
50	0x3d16ffee	0.036865167
51	0x3e6a5dde	0.2288737
52	0xbe43e7ef	-0.19131444
53	0xbce35fab	-0.027755579
54	0xbe5162cc	-0.20447844
55	0xbe3acaa6	-0.18241367
56	0xbd3c196c	-0.04592268
57	0x3e7d0c06	0.24711618
58	0x3da9f0a1	0.082978494
59	0x3eb566a9	0.35429886
60	0xbd0d0bfb	-0.034435254
61	0xbbd19cdb	-0.0063968725
62	0xbdd9ca33	-0.106342696
63	0xbcc8500e	-0.024452236
64	0x3d692cf1	0.056927625
65	0xbd2eac5d	-0.042644847
66	0xbda2ece6	-0.07955341
67	0x3d80615b	0.06268569
68	0x3de02621	0.109447725
69	0x3d86f133	0.06588974
70	0xbe5704a4	-0.20997864
71	0xbe14c5ec	-0.14528626
72	0xbd301c6e	-0.042995863
73	0xbd1306d8	-0.0358952
74	0xbe0ad3ad	-0.1355731
75	0xbc3941c2	-0.011307182
76	0xbd4956ca	-0.049155034
77	0x3dc8f9c9	0.09813268
78	0xbe13d104	-0.14435202
79	0xbe3cd36a	-0.18440023
80	0x3dbc4fa9	0.091948815
81	0x3bd06c8b	0.0063605956
82	0x3d042ef7	0.03227135
83	0xbdb3640f	-0.08759319
84	0xbdc19abc	-0.09453341
85	0xbe58fe02	-0.21190646
86	0x3d7c5d92	0.061612673
87	0x3d3ca1a8	0.046052605
88	0x3debfc19	0.11522693
89	0x3d846d40	0.0646615
90	0x3cf21590	0.029551297
91	0xbc05c514	-0.008164663
92	0xbdbede93	-0.093197964
93	0xbe9e7b2b	-0.30953345
94	0x3dc89782	0.09794523
95	0x3d6f15d3	0.058370423
96	0x3d21727c	0.03941582
97	0xbdc4c40c	-0.096077055
98	0x3df3499f	0.118792765
99	0xbe01a808	-0.12661755
100	0xbd078fc8	-0.033096105
101	0xbe3eb0bb	-0.18622105
102	0x3ce7e093	0.028305328
103	0x3e0ff1b8	0.14057052
104	0xbe5492e1	-0.20759155
105	0xbe8be2a9	-0.27321365
106	0xbd86e5c9	-0.06586797
107	0xbd97e7cb	-0.07417258
108	0x3d9306fb	0.07179066
109	0x3ea613ef	0.32437083
110	0xbd3bb408	-0.045825988
111	0xbe2515f9	-0.16121663
112	0xbe414fc3	-0.18878083
113	0xbe3a57f8	-0.1819762
114	0xbd51bc58	-0.05120501
115	0xbd098548	-0.033574373
116	0x3e83ace7	0.25717852
117	0x3e46133d	0.19343276
118	0x3ce9f220	0.028557837
119	0x3e9a5a2c	0.3014692
120	0x3e1f3b1a	0.15549889
121	0xbdcb7ebe	-0.099362835
122	0x3e0af23a	0.13568965
123	0x3df86f21	0.12130571
124	0x3b0c79ce	0.0021434906
125	0xbd38445c	-0.044987068
126	0x3de5a969	0.11213953
127	0x3d3cfd74	0.04614015
128	0xbd35b39a	-0.044360735
129	0xbdd38ee3	-0.10329988
130	0xbd4ab24e	-0.04948645
131	0xbe61e98c	-0.22061747
132	0xbcbbf5c7	-0.022944344
133	0x3d867342	0.065649524
134	0x3db3db72	0.0878209
135	0xbd9d749a	-0.076882556
136	0xbdc70284	-0.09717277
137	0x3d947647	0.07249122
138	0xbd8e014f	-0.06933843
139	0x3cc7f705	0.02440978
140	0xbd848122	-0.06469943
141	0xbc549106	-0.012974029
142	0x3ca3f9f0	0.02001664
143	0x3e48dd5e	0.19615695
144	0x3e465513	0.1936839
145	0x3e33012d	0.17480917
146	0xbde87e45	-0.11352209
147	0xbb1d3f34	-0.002399397
148	0x3e0e4f43	0.13897423
149	0x3e5d24b4	0.21596032
150	0x3df46b69	0.11934549
151	0xbdd559b1	-0.10417498
152	0xbe0aa887	-0.1354085
153	0xbd491aed	-0.049097944
154	0x3e675bb1	0.22593571
155	0x3c8799ef	0.016552893
156	0x3cf32851	0.02968231
157	0x3e2101f9	0.15723409
158	0x3e5e2f8b	0.21697824
159	0x3e9f6a32	0.31135708
160	0x3e39282b	0.18081729
161	0xbe313535	-0.17305453
162	0x3d1b5cb7	0.037930217
163	0xbe943a33	-0.28950652
164	0x3e026647	0.12734328
165	0x3d640d5e	0.05567681
166	0x3dcdcc07	0.10048681
167	0xbe1d37da	-0.15353337
168	0xbd754f05	-0.059889812
169	0x3e440324	0.19141823
170	0x3d4adc81	0.049526695
171	0x3d996694	0.07490268
172	0xbeb31dd7	-0.34983703
173	0xbcfe5f56	-0.03105132
174	0xbe1bb3bf	-0.15205286
175	0x3e353807	0.17697154
176	0xbe908642	-0.2822743
177	0xbd8b0eff	-0.0678997
178	0xbe5190b6	-0.20465359
179	0xbe7ce29a	-0.24695817
180	0xbd02e6c8	-0.03195837
181	0xbd9f9a85	-0.07793144
182	0x3e37dd32	0.17955473
183	0xbe92c38e	-0.2866482
184	0xbe18cf13	-0.14922743
185	0xbd0cce82	-0.03437663
186	0x3ce11f27	0.027480675
187	0xbe16ea2c	-0.14737767
188	0x3d82cf7b	0.0638723
189	0x3df80afd	0.12111471
190	0x3e3d62ef	0.18494771
191	0xbe622474	-0.22084218

actor.2.bias f4 [3]
0	0xb8df9ecb	-0.00010663046
1	0x3bee2890	0.007268019
2	0xbb5aa177	-0.00333604

critic.0.weight f4 [64, 64]
0	0xbe72637f	-0.23670767
1	0x3db3ca00	0.08778763
2	0x3e344861	0.17605735
3	0x3da640bb	0.08117815
4	0xba443024	-0.000748398
5	0x3e97c803	0.29644784
6	0x3c5a3b4a	0.0133198
7	0x3cb45c25	0.022016594
8	0x3d6f99ed	0.058496404
9	0xbe04d9e8	-0.1297375
10	0xbdbb95ae	-0.091594085
11	0x3dd99fc7	0.10626178
12	0x3e515ebe	0.20446298
13	0x3de7629d	0.11298106
14	0xbd51f165	-0.051255602
15	0x3e5196cb	0.20467679
16	0xbd91e116	-0.0712301
17	0x3cdd5c67	0.0270216
18	0x3dc72768	0.09724313
19	0xbe3f51ab	-0.18683498
20	0xbd9c0f69	-0.07620127
21	0x3da93dec	0.08263764
22	0x3d0bea66	0.034159087
23	0x3e17033e	0.1474733
24	0x3d0cff2d	0.034423042
25	0x3d9636d4	0.073346764
26	0x3db3e29d	0.087834574
27	0x3d4a4db1	0.0493905
28	0x3e4625ac	0.19350308
29	0x3d56b84d	0.052421857
30	0xbddd7d3d	-0.10814903
31	0xbd99e337	-0.07514041
32	0xbd32959a	-0.043599702
33	0x3d29055f	0.041264888
34	0x3d789dd1	0.06069738
35	0x3e48795d	0.19577546
36	0x3e47834e	0.19483683
37	0xbd4800bd	-0.04882883
38	0x3d4b9503	0.049702656
39	0xbe0fba92	-0.14036015
40	0xbe78b930	-0.24289393
41	0x3e54e6c9	0.20791163
42	0xbd1c5855	-0.038170177
43	0xbc396ba8	-0.011317171
44	0x3eba8fcc	0.36437833
45	0x3c8a315f	0.016869245
46	0x3d5d394c	0.05400972
47	0xbe1c6a4d	-0.15274926
48	0x3cb5580e	0.022136714
49	0x3c8df97b	0.017330876
50	0xbce3464c	-0.027743481
51	0x3e58617a	0.21130934
52	0x3d226fe5	0.039657492
53	0xbd7af73a	-0.06127093
54	0xbe018a51	-0.1265042
55	0xbd75ff0e	-0.060057692
56	0xbd41d57b	-0.04732273
57	0xbd940be8	-0.072288334
58	0xbd15d2b6	-0.036577903
59	0x3ced5bb9	0.0289744
60	0x3be9a9f3	0.007130855
61	0x3e4d2149	0.20032229
62	0xbd318d15	-0.043347437
63	0xbc999010	-0.018745452
64	0x3d8913b6	0.06693213
65	0x3dcff394	0.10153881
66	0xbdef5566	-0.1168621
67	0x3e837e7d	0.2568244
68	0xbb380f8b	-0.0028085436
69	0x3ba8f8ca	0.005156611
70	0xbede0982	-0.4336663
71	0xbd5c486b	-0.05378
72	0xbd4041e1	-0.046937827
73	0x3dd2316b	0.10263332
74	0x3d8f47d1	0.0699612
75	0xbcfa5a33	-0.030560588
76	0xbcd25ad4	-0.025678076
77	0xbafabb5c	-0.0019129324
78	0xbe3d622d	-0.18494482
79	0xbdb24b89	-0.087058134
80	0x3e3334f3	0.17500667
81	0xbce0776e	-0.027400699
82	0xbd18d6a8	-0.037314087
83	0xbe64160e	-0.22274038
84	0x3e03ea6d	0.12882395
85	0x3ea47aab	0.32124838
86	0xbd6639ac	-0.056207344
87	0x3c478c1f	0.012179404
88	0xbcea1b2a	-0.028577406
89	0xbdbd5e0c	-0.09246454
90	0x3d9183ca	0.07105215
91	0x3d789ca2	0.06069625
92	0x3e20ccc9	0.1570312
93	0x3e4c808c	0.19970912
94	0x3d778c32	0.060436435
95	0x3c479fcd	0.012184096
96	0x3dd3efad	0.10348449
97	0xbcff079a	-0.031131554
98	0x3e0f0e03	0.13970189
99	0xbd24f8cc	-0.040276334
100	0x3d640fcc	0.055679128
101	0xbda2ed18	-0.07955378
102	0x3be5f975	0.007018263
103	0xbea59208	-0.32337976
104	0x3dbf7a32	0.09349479
105	0xbdb3e64c	-0.0878416
106	0xbd9147ed	-0.07093797
107	0x3c640d23	0.013919148
108	0x3e12ae1d	0.14324231
109	0xbe6f3a21	-0.23362018
110	0xbd88460a	-0.06653984
111	0x3d852902	0.06501962
112	0x3ae72bfe	0.0017637012
113	0x3e78e90d	0.24307652
114	0xbd1f60c9	-0.03891066
115	0xbdda12cc	-0.106481165
116	0x3c8fd2ab	0.017556509
117	0xbcf5a330	-0.02998504
118	0xbda00aae	-0.07814537
119	0xbd366704	-0.044531837
120	0xbdb92c22	-0.09041621
121	0x3dcde994	0.10054317
122	0xbaacef98	-0.0013193963
123	0xbc1388a2	-0.009004744
124	0xbddc81ff	-0.10766982
125	0xbdc9d643	-0.0985532
126	0x3b982ca2	0.0046439925
127	0xbde10a88	-0.10988337
128	0xbda94728	-0.08265525
129	0xbe020b9d	-0.12699743
130	0x3dc265f4	0.09492102
131	0x3de4723d	0.11154602
132	0x3d64020c	0.055666015
133	0x3dbffce4	0.09374407
134	0xbe954862	-0.29156786
135	0xbccc4b07	-0.02493812
136	0xbd2d0bfa	-0.04224775
137	0x3dacbfc5	0.08435015
138	0xbdc89ee7	-0.09795933
139	0xbe322675	-0.17397483
140	0xbe2fd423	-0.17170767
141	0xbbc17b24	-0.005904572
142	0x3ce8b91a	0.028408576
143	0x3e8c3fcb	0.2739242
144	0x3db1f8a7	0.08690005
145	0xbe03467d	-0.12819858
146	0x3bab5509	0.005228643
147	0x3cc2f623	0.023799008
148	0xbdbe194b	-0.09282168
149	0x3d9a0366	0.075201795
150	0x3e172d95	0.14763482
151	0x3d686d9e	0.056745164
152	0x3d3ab15c	0.0455793
153	0xbde92ef7	-0.11385911
154	0x3c14141c	0.009037998
155	0x3bb8704a	0.0056286203
156	0x3e00f561	0.12593605
157	0xbd593d77	-0.053037133
158	0x3dcd21fc	0.10016248
159	0xbe28f143	-0.16498284
160	0xbd814a46	-0.06312995
161	0x3dc0afc5	0.094085254
162	0x3e2f66d6	0.17129073
163	0x3de922f6	0.113836214
164	0xbd725dd4	-0.059171513
165	0xbe45dcb7	-0.19322477
166	0xbde8e963	-0.1137264
167	0xbe1139c4	-0.14182192
168	0x3d61f1cd	0.05516224
169	0x3c0d0fb0	0.008609697
170	0x3b8b5ddd	0.0042531327
171	0x3dfc0de6	0.123073384
172	0x3ddca965	0.10774497
173	0xbd0600e7	-0.032715704
174	0x3c59f230	0.013302371
175	0x3d207b05	0.03917982
176	0x3db6a92b	0.08918985
177	0x3ea5afd7	0.32360718
178	0x3ca42b3f	0.020040153
179	0x3e849069	0.25891426
180	0x3c3065e2	0.010766478
181	0x3d309b6a	0.043116964
182	0x3e5832f9	0.21113195
183	0x3dbe86cb	0.093030535
184	0x3de9e831	0.1142124
185	0x3e435da1	0.19078685
186	0xbb6a130c	-0.003571692
187	0xbddca083	-0.10772803
188	0xbe074f92	-0.13213947
189	0xbce5d211	-0.028054269
190	0x3e289782	0.16464046
191	0x3cf2b50f	0.029627351
192	0xbd1b545d	-0.037922252
193	0x3d914dd7	0.07094925
194	0x3e3c2f7a	0.18377486
195	0xbdbb6377	-0.09149831
196	0xbe3340fa	-0.17505255
197	0xbd864a68	-0.065571606
198	0xbdeb0d1b	-0.11477109
199	0x3dce37e2	0.100692526
200	0xbe941c61	-0.289279
201	0x3cb9d508	0.022684589
202	0xbe8606c9	-0.26177052
203	0x3d6666c9	0.056250367
204	0xbc206bf5	-0.009791364
205	0xbd17a457	-0.03702196
206	0xbe9c9a1e	-0.30586332
207	0xbd804a7b	-0.06264206
208	0x3dfa235e	0.12213777
209	0x3df3c44f	0.11902677
210	0x3d535a50	0.0515998
211	0x3cd22b63	0.025655454
212	0xbe2bd7bb	-0.16781513
213	0xbdbb4441	-0.09143878
214	0xb943011e	-0.00018597065
215	0x3d989778	0.07450765
216	0xbda5313f	-0.080660336
217	0x3cf47e34	0.029845335
218	0xbd9227c2	-0.071364895
219	0xbe2f1977	-0.17099558
220	0xbd9062a4	-0.07050064
221	0x3e78e2c3	0.24305253
222	0x3c06b6cc	0.008222293
223	0x3d4d9389	0.05018953
224	0x3d9f0bd2	0.077659264
225	0xbd4f60db	-0.050629478
226	0x3d301b6d	0.042994905
227	0x3de73f10	0.11291325
228	0xbd0ba0a6	-0.034088753
229	0xbca88fe1	-0.02057642
230	0xbe319dec	-0.17345399
231	0x3dc76ece	0.09737931
232	0xbce5c182	-0.028046373
233	0xbd8069da	-0.062701896
234	0xbe152f01	-0.14568712
235	0x3e47008f	0.19433807
236	0xbd7a3484	-0.06108524
237	0xbd0c638e	-0.03427463
238	0xbd806aba	-0.062703565
239	0xbe5d1bca	-0.21592632
240	0xbdff3b4e	-0.12462483
241	0xbd95f469	-0.07322008
242	0x3db448ea	0.0880297
243	0xbd2f758c	-0.04283671
244	0x3cda027f	0.026612518
245	0xbe0500c4	-0.12988573
246	0x3e5c224b	0.21497457
247	0xbe22d479	-0.15901364
248	0xbc583d15	-0.013198157
249	0x3d88a13e	0.066713795
250	0x3eb5ff7b	0.3554648
251	0xbd276652	-0.040869065
252	0xbe0a374e	-0.1349766
253	0x3d70721d	0.058702577
254	0xbdec8a37	-0.115498
255	0xbd571777	-0.052512612

critic.0.bias f4 [64]
0	0x3c04bac5	0.00810117
1	0xbc02784b	-0.00796325
2	0xbc0f123d	-0.008732376
3	0xbc0f182f	-0.008733793
4	0xbc104fa9	-0.008808055
5	0x3c044504	0.008073095
6	0xbbf77833	-0.0075521707
7	0xbc0ba5b6	-0.008523395
8	0x3be162f4	0.006878251
9	0xbc169eb6	-0.009193113
10	0xbc12ea21	-0.0089669535
11	0x3c130a88	0.008974679
12	0x3c065599	0.008199119
13	0xbc1830ce	-0.00928898
14	0x3bf839e1	0.007575259
15	0xbc07c24b	-0.008286069
16	0xbbba2d3c	-0.005681662
17	0xbc09c144	-0.0084078945
18	0xbc1a0617	-0.009400866
19	0xbbfe3c31	-0.00775864
20	0x3c426ac1	0.011866272
21	0xbc0846e7	-0.008317686
22	0x3c01c496	0.007920405
23	0xbc5c9def	-0.013465389
24	0x3c450581	0.012025238
25	0x3c1c6c2c	0.009547275
26	0x3bb6631e	0.005566015
27	0x3c0202cd	0.007935238
28	0xbbff7360	-0.007795736
29	0x3c03f111	0.00805308
30	0x3c0b45a7	0.008500493
31	0x3c09872c	0.008394044
32	0x3c0d2fbe	0.00861734
33	0x3c0a3a92	0.008436816
34	0x3c02ebb7	0.007990769
35	0x3c10627a	0.008812541
36	0x3c03c642	0.008042874
37	0x3c101cb5	0.008795907
38	0xbc03338a	-0.008007893
39	0x3be712f6	0.007051821
40	0x3c089563	0.008336398
41	0xbc0e2c83	-0.008677605
42	0x3c0b5256	0.008503517
43	0xbc14a471	-0.009072409
44	0xbc03b1c1	-0.008037985
45	0x3c41d9d3	0.0118317185
46	0x3c0fd98b	0.008779894
47	0x3c064033	0.008194017
48	0x3c0196f9	0.00790953
49	0x3be53dea	0.006995906
50	0xbc2e52e2	-0.010639878
51	0xbc107c6e	-0.008818729
52	0xbbdf958e	-0.006823248
53	0x3bf5dc9d	0.007503106
54	0x3c22a3e8	0.009926774
55	0x3c160219	0.009155774
56	0xbc020817	-0.007936499
57	0xbc00c56b	-0.007859568
58	0x3c079f85	0.0082777785
59	0xbc42c063	-0.011886689
60	0xbc0617fa	-0.008184427
61	0xbbec9f52	-0.007221141
62	0x3be944cd	0.0071187974
63	0xbc082e88	-0.008311875

critic.2.weight f4 [1, 64]
0	0xbd88c63a	-0.06678434
1	0x3d0d277d	0.034461487
2	0x3be3538f	0.006937451
3	0x3e550cea	0.20805708
4	0x3d6ca0bc	0.057770476
5	0xbe09fb76	-0.13474831
6	0xbac8a0c4	-0.0015306701
7	0x3e241023	0.1602178
8	0xbcdeeaf7	-0.02721165
9	0x3e13cc5d	0.14433427
10	0x3cfdaf6f	0.030967442
11	0xbd90817a	-0.07055946
12	0xbdb9be02	-0.09069444
13	0x3e1c614c	0.15271491
14	0xbe47519a	-0.19464722
15	0x3d5217c1	0.051292185
16	0x3d4cb0a4	0.049973145
17	0x3dddee87	0.10836511
18	0x3df9871f	0.121839754
19	0x3dab461b	0.08362981
20	0xbc892694	-0.016742028
21	0x3e3f12f5	0.18659575
22	0xbe40679d	-0.18789525
23	0x3e8b285c	0.2717923
24	0xbe57ac79	-0.21061887
25	0xbd43b2d0	-0.04777795
26	0xbc397258	-0.011318766
27	0xbd49c9fd	-0.049264897
28	0x3decf515	0.11570183
29	0xbde3d9f1	-0.111255534
30	0xbdba8f2c	-0.09109339
31	0xbdf9114c	-0.12161502
32	0xbd1b30f6	-0.03788849
33	0xbe0724ed	-0.1319768
34	0xbe1ca546	-0.15297422
35	0xbdac53e6	-0.0841444
36	0xbe05d437	-0.13069235
37	0x3c2e9584	0.0106557645
38	0x3cbf11e9	0.02332397
39	0xbdc96d69	-0.098353215
40	0xbdb5ffa2	-0.08886649
41	0xbc07f77c	-0.008298751
42	0xbdaa2a18	-0.0830881
43	0x3e25967b	0.16170685
44	0x3d8aa957	0.0677058
45	0xbd5a7e02	-0.053342827
46	0xbd8cdd65	-0.06878165
47	0xbe52394f	-0.20529674
48	0xbe1dd4ee	-0.15413257
49	0xbd9258e3	-0.0714586
50	0x3e1ea6b6	0.15493283
51	0x3dbe6410	0.09296429
52	0x3db0115e	0.085970625
53	0xbdbbeed6	-0.09176414
54	0xbd33e1fb	-0.043916684
55	0xbd5c4d7e	-0.05378484
56	0x3df42101	0.119203575
57	0x3d41b385	0.047290344
58	0xbda6b079	-0.08139128
59	0x3e018830	0.12649608
60	0x3d4e3c7f	0.050350662
61	0x3e064495	0.131121
62	0x3c56f038	0.013118796
63	0x3d8f0ecc	0.06985244

exp_avg f4 [16, 3, 2, 2]
0	0xb4873d9a	-2.519053e-07
1	0x38baf658	8.915056e-05
2	0x388d6b5f	6.743403e-05
3	0x393f9de3	0.00018273997
4	0xb88202e0	-6.1994186e-05
5	0xb7dc792a	-2.6282465e-05
6	0xb8789928	-5.9270445e-05
7	0x37cbf74e	2.4314646e-05
8	0x00000000	0.0
9	0x00000000	0.0
10	0x00000000	0.0
11	0x00000000	0.0
12	0x39cae019	0.00038695408
13	0x391baa0b	0.00014845298
14	0x3916f085	0.00014394715
15	0x391cb484	0.00014944567
16	0x3981ab4f	0.00024732432
17	0x3914c7b1	0.00014188771
18	0x393673c6	0.00017400002
19	0x392042f5	0.00015283733
20	0x00000000	0.0
21	0x00000000	0.0
22	0x00000000	0.0
23	0x00000000	0.0
24	0xb8939bc3	-7.038519e-05
25	0xb97f4aa0	-0.00024346495
26	0x394be3c8	0.00019444444
27	0xb958b2ff	-0.00020666046
28	0xb939a6cb	-0.0001770511
29	0xb9819258	-0.00024713832
30	0xb840dce6	-4.5982095e-05
31	0xb957789d	-0.0002054893
32	0x00000000	0.0
33	0x00000000	0.0
34	0x00000000	0.0
35	0x00000000	0.0
36	0x399fa534	0.0003044993
37	0x38deef5d	0.0001063037
38	0x3929a0bd	0.00016176976
39	0x3877e53f	5.910289e-05
40	0xb82c182c	-4.1030507e-05
41	0x3693bccc	4.4029202e-06
42	0xb9247866	-0.0001568511
43	0xb8b68b76	-8.704413e-05
44	0x00000000	0.0
45	0x00000000	0.0
46	0x00000000	0.0
47	0x00000000	0.0
48	0x39000be3	0.0001221146
49	0x38dc7bad	0.00010513454
50	0x39016937	0.00012341594
51	0x38ed9731	0.00011329202
52	0x39919ceb	0.00027773468
53	0x39611214	0.00021464407
54	0x39a1c383	0.0003085398
55	0x39840ad3	0.00025185067
56	0x00000000	0.0
57	0x00000000	0.0
58	0x00000000	0.0
59	0x00000000	0.0
60	0xb92d5063	-0.00016528512
61	0xb976b534	-0.00023527892
62	0xb9698e70	-0.00022273674
63	0xb9a2656a	-0.00030974607
64	0xb88cd45b	-6.7152745e-05
65	0xb83c1318	-4.4840475e-05
66	0xb909d027	-0.00013142881
67	0xb8c0c731	-9.192376e-05
68	0x00000000	0.0
69	0x00000000	0.0
70	0x00000000	0.0
71	0x00000000	0.0
72	0x382b3c16	4.0825536e-05
73	0xb93c4cd8	-0.00017957704
74	0xb8bf8135	-9.1316564e-05
75	0xb895a8ee	-7.136339e-05
76	0xb98e1961	-0.0002710326
77	0xb9ba1dc7	-0.0003549887
78	0xb970035d	-0.00022889437
79	0xb96fbf5a	-0.000228641
80	0x00000000	0.0
81	0x00000000	0.0
82	0x00000000	0.0
83	0x00000000	0.0
84	0x395467ad	0.00020256518
85	0x3607467d	2.0157597e-06
86	0xb80a51a1	-3.2977787e-05
87	0xb7724d65	-1.4442344e-05
88	0xb9378844	-0.00017503003
89	0x37c72913	2.3741775e-05
90	0xb953f28f	-0.00020212888
91	0x385a9d65	5.2121835e-05
92	0x00000000	0.0
93	0x00000000	0.0
94	0x00000000	0.0
95	0x00000000	0.0
96	0x383d02b7	4.506364e-05
97	0x38e5dc57	0.000109606124
98	0x38bc6c29	8.984685e-05
99	0x3869212b	5.558242e-05
100	0xb712aab9	-8.742028e-06
101	0xb890da9a	-6.907173e-05
102	0x395a0f05	0.00020795695
103	0x390ca2f7	0.0001341215
104	0x00000000	0.0
105	0x00000000	0.0
106	0x00000000	0.0
107	0x00000000	0.0
108	0x39b934ec	0.0003532538
109	0x3891ef73	6.95874e-05
110	0x393c9840	0.00017985795
111	0x392a22b6	0.00016225394
112	0x3871fb74	5.769306e-05
113	0x38936f45	7.030232e-05
114	0xb8c0c14c	-9.191278e-05
115	0xb584a86b	-9.883782e-07
116	0x00000000	0.0
117	0x00000000	0.0
118	0x00000000	0.0
119	0x00000000	0.0
120	0xb7dc4ddd	-2.6262302e-05
121	0xb8353398	-4.3201813e-05
122	0x38b7e385	8.768499e-05
123	0xb78b6504	-1.661713e-05
124	0xb9e64842	-0.00043922855
125	0xb93c75a7	-0.00017972906
126	0xb9e53a48	-0.00043721707
127	0xb96b880b	-0.00022462026
128	0x00000000	0.0
129	0x00000000	0.0
130	0x00000000	0.0
131	0x00000000	0.0
132	0xb9973504	-0.00028840464
133	0xb9a1a5cb	-0.00030831838
134	0xb7b2a11d	-2.1294278e-05
135	0xb9189539	-0.0001455144
136	0xb9d6bed1	-0.0004095943
137	0xb98325b3	-0.00025014355
138	0xb9135363	-0.00014050076
139	0xb7210b82	-9.599027e-06
140	0x00000000	0.0
141	0x00000000	0.0
142	0x00000000	0.0
143	0x00000000	0.0
144	0x3873bc72	5.8111218e-05
145	0x39734384	0.00023199437
146	0x398dbf68	0.00027036224
147	0x39362ac6	0.00017372807
148	0x38e4bdbb	0.00010907227
149	0x393bd644	0.0001791353
150	0x391cf9b2	0.00014970338
151	0x38ed714d	0.000113221446
152	0x00000000	0.0
153	0x00000000	0.0
154	0x00000000	0.0
155	0x00000000	0.0
156	0x37818065	1.5437787e-05
157	0x36cf11e3	6.171163e-06
158	0x3834cf28	4.3108274e-05
159	0x374e207b	1.2286119e-05
160	0xb82fc905	-4.1910465e-05
161	0xb83f1624	-4.555857e-05
162	0x38b63b17	8.6894426e-05
163	0x38a62f56	7.924314e-05
164	0x00000000	0.0
165	0x00000000	0.0
166	0x00000000	0.0
167	0x00000000	0.0
168	0x38e61051	0.00010970294
169	0x38f808d3	0.00011827205
170	0x3971c417	0.000230566
171	0x39829b26	0.00024911127
172	0x38e70e01	0.00011017547
173	0x390238f8	0.00012418989
174	0x38c65a1b	9.458159e-05
175	0x38fcfb25	0.00012063076
176	0x00000000	0.0
177	0x00000000	0.0
178	0x00000000	0.0
179	0x00000000	0.0
180	0x00000004	6e-45
181	0x00000004	6e-45
182	0x00000004	6e-45
183	0x00000004	6e-45
184	0x00000000	0.0
185	0x00000004	6e-45
186	0x00000000	0.0
187	0x00000000	0.0
188	0x00000000	0.0
189	0x00000000	0.0
190	0x00000000	0.0
191	0x00000000	0.0
