A2C_Grid_World/storage/Empty/status.pt (torch, 246211 bytes, 39 tensors)

image_conv.0.weight f4 [16, 3, 2, 2]
00000000: c2f0 8f3e 68b8 15be 856a 8abd 4a18 e33d
00000010: 7238 8abe f551 183e d31d 80bd 32f0 123e
00000020: 2360 243d 94c7 10bd 45fa a33d 7e52 693c
00000030: 1d61 c23d d79c 11be ca95 1cbd e414 93bc
00000040: 7672 a83c a5f4 33bd f3c8 723e 5ef2 7f3d
00000050: 472b dcbd 7288 32be e430 46bd f102 ffbd
00000060: 1262 e0bd 0fdc 6c3c 5bec e73d 8773 0e3e
00000070: 0d30 9bbe 04fb 223e e2a4 933d 58bc 8c3e
00000080: aa1d 433e ecaa 86be f487 8cbe 3894 0ebe
00000090: c756 9c3e bfe2 a8bd b52a f53d 9041 1ebe
000000a0: 7d83 803e 08f8 fabd 6aaa 3d3e 31de 2fbc
000000b0: 9fba 1bbe cbf1 173e 86e9 1cbe 6de0 ad3d
000000c0: ebcf cfbd 6637 d5bd 4451 99be ab78 1ebe
000000d0: 26b6 113e d881 afbd c2fe 873e 2dac 603e
000000e0: a175 5dbc 6b4f 45be e102 343e 357c b73d
000000f0: 1d59 38be c22e a03e 1e3b 3b3e 4016 9d3e
00000100: 51c5 08be 8ece 83bd ebf7 83bc 7552 84bd
00000110: ba56 60be 49c4 51be 3fcf 203e 19a2 8abd
00000120: ae07 ff3d 8e77 d7bc 1b6b 7d3d f98c 8c3d
00000130: c827 973d 2dc9 e13d 2d2b 91be f003 073e
00000140: 77d8 4fbe 0e09 5fbe c3d0 8f3c e17d 49bd
00000150: 15d1 273e 3e0b 33be d284 84be ee8c c73e
00000160: 7f5d 5bbd fad7 1d3e 1a77 c23d 207b 25be
00000170: 798b 6d3d 7e01 8e3d 7cec 45be 6e41 0cbe
00000180: 0268 a83d 138c 26bd 22de 04be 6d98 d3bd
00000190: ad2f 833e 3de0 c3bd 2596 203e 5127 ce3d
000001a0: 8214 3fbe ca63 7bbe 87df 8d3e 9bf7 763c
000001b0: decf 393e 0492 6f3d 25da 933d 35f0 7a3e
000001c0: 6146 843e 8dc9 5fbe 7429 7d3c c6b6 1a3e
000001d0: 3b25 563e e2a3 373e 08ef 55be 7edd 54be
000001e0: 8202 41be df0a 0e3e 80c6 d03e 1bbe 50be
000001f0: d2ee 2a3e 05e5 1cbe c4bf 61be 20b1 f03c
00000200: 6b51 2a3e 2237 893e c594 37be 694c 803d
00000210: 6817 793e 41a4 4c3e 93f0 493e a48c 963e
00000220: 3612 223e f62d 163d 0447 49be c61b 69be
00000230: 9873 07be ebaf 09bd d330 35be 8d4b d83d
00000240: b7fe d03d 032b aebd 8745 e03d ab4d 863d
00000250: d5d6 1a3e e6f6 313e fda4 d3bd 46bb 8d3e
00000260: 36b2 08bd f17d 22bc ce81 8bbe 4e41 3ebe
00000270: acce 28be 171a f5bd f11d 6d3e 89ce bdbd
00000280: f508 5cbe 6731 e53d 11de ba3d ed3f 3c3e
00000290: 6cf7 18be b62e 803d aa3a d7bd 45d4 84bd
000002a0: f320 77be 7267 0dbe dc39 cabd 3f7a ac3d
000002b0: b772 283d 684a 8e3d d68b 8e3e 963a 933e
000002c0: 8b9d 493e e29b 163c f07e 4cbe 5104 673e
000002d0: d3d6 93bd 6d2f bfbc 76a9 7ebe 7a8f 69bd
000002e0: 1aa9 3ebe dad0 873e 288e 7fbe ee6a 66be
000002f0: fa99 20bc 59d6 1fbe 688a d33d 1292 e3bd
0.2811337 -0.14621127 -0.06758598 0.11088617 -0.2699619 0.14875014 -0.062556885 0.1434944
0.040130746 -0.035346583 0.080067195 0.014240859 0.09491179 -0.14219986 -0.038228787 -0.017954297
0.020562392 -0.043934483 0.23709469 0.062487 -0.10750442 -0.17434862 -0.04838647 -0.12451733
-0.109562054 0.014456763 0.11324378 0.13911258 -0.30310097 0.15916067 0.07209183 0.27487445
0.19054285 -0.26302278 -0.27447474 -0.13923728 0.30534956 -0.082463734 0.11971036 -0.15454698
0.25100318 -0.122543395 0.18522039 -0.010734127 -0.15207909 0.1483833 -0.15323457 0.084900714
-0.10147079 -0.10410957 -0.29944813 -0.15475719 0.1422964 -0.085696876 0.26561552 0.2194068
-0.013516814 -0.19268577 0.17579223 0.089592375 -0.18002744 0.31285673 0.1828427 0.30681038
-0.1335652 -0.064358816 -0.016109427 -0.0646104 -0.21908084 -0.20485033 0.15704058 -0.06769199
0.12452637 -0.026302125 0.06186972 0.06862826 0.073806345 0.11024699 -0.28353253 0.13185096
-0.20297419 -0.21780798 0.0175556 -0.049192313 0.16388352 -0.17484757 -0.25882584 0.38974708
-0.05355596 0.1541442 0.09495373 -0.1616025 0.05799434 0.06933878 -0.19328493 -0.13696834
0.08222963 -0.04066093 -0.12975362 -0.10331807 0.2562231 -0.095642544 0.15682276 0.10066093
-0.18660167 -0.24549785 0.277096 0.015073682 0.18145701 0.05848886 0.07219342 0.24505694
0.25834945 -0.2185423 0.015451778 0.15108785 0.2091264 0.1793361 -0.20891964 -0.20787618
-0.18848613 0.13871334 0.40776443 -0.2038502 0.16692665 -0.15321739 -0.22045809 0.029381335
0.16632621 0.26799875 -0.17927845 0.06264574 0.24325335 0.19984533 0.19720678 0.29404175
0.1582726 0.036664926 -0.19655997 -0.22764501 -0.1322769 -0.033615034 -0.17694406 0.10561285
0.10204833 -0.085042976 0.10950761 0.06557783 0.15121014 0.1737934 -0.103342034 0.2768194
-0.03337308 -0.009917722 -0.2724747 -0.185796 -0.16485089 -0.11967867 0.23155953 -0.09267909
-0.21487792 0.111910634 0.09124387 0.18383761 -0.14938134 0.062589094 -0.10509236 -0.064858
-0.24133663 -0.13808993 -0.09874317 0.08421754 0.041125026 0.069477856 0.2784106 0.28755635
0.19689004 0.009192439 -0.19970298 0.2256024 -0.07218709 -0.023338044 -0.24869332 -0.057021596
-0.18619195 0.2652653 -0.24956572 -0.22501728 -0.009802336 -0.15609111 0.10329133 -0.11111845

image_conv.0.bias f4 [16]
00000000: 1e15 1abe 8cf3 1dbb e24a 443e 1919 69be
00000010: 88be e83d 8d09 2a3e 1af5 813e 1380 55be
00000020: bb29 7e3d d69c 70be db9e 5e3e 571b 07be
00000030: ba28 1f3e 350f 713c e2f2 08bd aee9 16bc
-0.15047118 -0.0024101464 0.1916919 -0.2276348 0.11364466 0.16605206 0.2538231 -0.20849638
0.062051516 -0.23497328 0.21740286 -0.13194023 0.1554288 0.014713098 -0.033434756 -0.009210987

image_conv.3.weight f4 [32, 16, 2, 2]
00000000: 9187 c03c b701 663e 1fea 44bc 2702 2a3b
00000010: 7795 02be 16d8 b43d b330 c43d 6299 d53d
00000020: 1412 ab3d 9189 72bd c445 7fbd 3126 f73d
00000030: 93a3 e0bd 4fb1 d43d 6373 e6bd 4aec b8bd
00000040: be1d 413d 1e28 ccbd 8cc5 26bd d900 d23d
00000050: 47b6 ae3d 1862 4e3e 4cbf 1dbd d606 0abe
00000060: d752 ec3d a344 d2bc 9b23 88bd 3ca5 f03c
00000070: 0c05 c4bd ea14 273e 3c8a fe3c c675 19be
00000080: 8576 eabd 445c 85bc e285 273d d589 00bb
00000090: b7b6 97bd 4515 1b3c ea89 03be bc49 abbd
000000a0: 7109 6fbd 8e84 5a3e ff39 9c3d 853a 70bd
000000b0: 182a eabb 152b cb3d e31f c5bb e2e0 8abd
000000c0: de57 7c3d bf29 ac3d cd62 bebc d90e 83bb
000000d0: 5291 cf3d b070 2e3e 79f9 c7bd 3e14 023e
000000e0: 3b0f a53c 637d 80bd f542 563d 2d86 a6bd
000000f0: 9686 ec3d ba93 a4bd d4ce 103d 74e7 1b3d
00000100: 0891 f33c 0455 d43d b0a8 54bd b426 58bd
00000110: a0d7 ddbd 4019 a8bb 808b 72bd a01f a43b
00000120: 20eb d1bc dce0 293d a475 dd3d 7c14 173d
00000130: 90ef 24bd 883c 7bbd 6c45 dfbd 1069 d73d
00000140: 98fc c1bc 18b3 ce3c 0084 973b f023 a3bd
00000150: a82c 903d 9a77 8f3d 4046 ce3b 627b 91bd
00000160: 5c8d 59bd 00a0 e13a 2843 92bd 5ad6 8ebd
00000170: 40bf 98bc 3c6e 13bd 505f fb3c b093 06bd
00000180: a0be 87bc c46b 43bd c4f2 e9bd b643 df3d
00000190: 705c c33c e6eb e43d 6807 a5bc 14ac 00bd
000001a0: ccaa f0bd 545c 42bd ace0 a73d f2bc fabd
000001b0: 7414 33bd 6af8 9b3d 5e8b 933d b80d 3d3d
000001c0: 20b2 cabc d010 1bbc f076 c2bc 70be 3cbd
000001d0: 90ab 553d 8063 2ebd dad0 8fbd 184e e83c
000001e0: d009 b9bd 6889 dabc cad1 823d 7859 3f3d
000001f0: 4cf1 d93d a29a aebd 8073 8e3a ec31 17bd
00000200: 8aeb 09be dad9 2ebe 2c82 7b3b 63d0 f43c
00000210: eda6 6fbd 7fdd 94bd a4e1 d1bd fce2 1a3e
00000220: dcaf 83bc 1eef 83bd 6bb7 c0bc 37b7 08bd
00000230: bc5c e8bd 3efe 52bd 6eb9 9b3d a666 7c3d
00000240: 9d12 11bd 4062 65bd bf7e c33d b15d 083e
00000250: 8728 213e 7004 143e 4b16 ff3c fbc6 81bb
00000260: b351 b8bd 746e 10be c1bd 973d f39a 21bd
00000270: d6c4 993d 1e2d d1bc 2f34 41be dd48 50be
00000280: 867c 263d a168 cabc f540 ebbd 6011 ac3d
00000290: 3e6f 8e3c 1ce3 52bd ef45 403d 4af8 603d
000002a0: fe25 20bd f41c 453e 80fa 0fbc 0d26 16bd
000002b0: 4e46 54bc 3c93 17bc 2b54 923d 3075 4bbd
000002c0: f972 a5bd 0ad7 193d 6e8a 663d 9044 d23c
000002d0: 88e3 c7bc de97 dfbd a335 9e3c b6d5 d53d
000002e0: 1001 bf3c 71cb c9bd 5f87 0e3e 4772 a63c
000002f0: 5c5f ca3d b091 f93c 9e77 e53d 8eb4 933d
00000300: 87ba dabd 5490 6bbd 984a edbc 142a bdbd
00000310: 766f 22bd efca 08be 3fe2 a0bd 8e6b dfbd
00000320: 41f9 8f3d fdfe e13b a127 5bbd 837c 1c3d
00000330: 7d78 2a3d a2d9 03be 71f9 1a3d 59ad c23c
00000340: 928b e5bd 65bb f33d 7b9b bebd 9f10 b0bd
00000350: fd87 fbbd 2584 f53d 82f8 6d3d 1e1d 1c3e
00000360: 02c1 383b 9e3f 3c3d 49c4 7ebd 367d bfbd
00000370: adac b03c 992e cf3c d950 aebc 9a72 50bd
00000380: e0e9 42bc 6d06 633b 3193 063d 3d3f 0ebe
00000390: 7474 483d c93c 583c 6a14 983d fd4a 883d
000003a0: 08d4 e2bd 460f 9d3d 1935 eebd eeca e03d
000003b0: 2938 8d3c c199 6c3d 26aa 87bd 8a89 c83d
000003c0: 2d5f 9dbd ee12 e1bd 5095 443c 9b28 7b3d
000003d0: 6039 e13d 7ec8 e13c 0541 923d dc13 863d
000003e0: 25a1 9cbd aec8 90bd 426d 293d 3466 b1bd
000003f0: 0cda 6a3d 743f dbbd 18c5 ba3d 9c74 193d
0.023502143 0.22461592 -0.012018709 0.0025941224 -0.12752329 0.088302776 0.09579601 0.10429646
0.083530575 -0.059213225 -0.062322393 0.12067831 -0.10968699 0.103853814 -0.11252477 -0.090294436
0.047147505 -0.09968589 -0.04071574 0.10254068 0.085308604 0.20154607 -0.038512513 -0.1347917
0.11539238 -0.025667494 -0.06647416 0.029375665 -0.09571275 0.16316572 0.031071775 -0.14986333
-0.11448387 -0.016279347 0.040899165 -0.0019613404 -0.07407897 0.00946552 -0.12845579 -0.08363673
-0.058358613 0.21339628 0.076282494 -0.05864956 -0.0071461312 0.099203266 -0.006015764 -0.06781174
0.061607234 0.084064 -0.023240471 -0.0039995727 0.101351395 0.17035174 -0.0976438 0.12703034
0.020148864 -0.062739156 0.05230995 -0.08131061 0.11549108 -0.08035989 0.035353497 0.038062528
0.029732242 0.10367778 -0.051918685 -0.052771285 -0.10832143 -0.005129963 -0.05921507 0.005008653
-0.025624812 0.04147421 0.10813454 0.03688477 -0.040267527 -0.061337024 -0.10901913 0.10518086
-0.023680016 0.025231883 0.00462389 -0.07965839 0.070397675 0.07005234 0.0062949955 -0.071036115
-0.053113326 0.0017213821 -0.07141715 -0.06974478 -0.018645883 -0.0359938 0.030685097 -0.03285569
-0.01657039 -0.047710195 -0.11423257 0.10901587 0.023847789 0.111778066 -0.020145133 -0.031414106
-0.11751327 -0.047451332 0.0819715 -0.1224307 -0.043720677 0.076157406 0.072043166 0.04615566
-0.02474314 -0.009464458 -0.023738354 -0.046080053 0.052165568 -0.04257536 -0.07022257 0.02835755
-0.09035075 -0.026676849 0.0638767 0.046716183 0.10641727 -0.085255876 0.0010868162 -0.036912844
-0.13468757 -0.17075291 0.003837715 0.029884523 -0.058508802 -0.072688095 -0.10248116 0.1512565
-0.016075067 -0.06442092 -0.02352496 -0.033377852 -0.11345813 -0.051511995 0.07603727 0.06162133
-0.03541814 -0.0560019 0.09545659 0.1331699 0.15738116 0.14454818 0.03113856 -0.003960488
-0.08999958 -0.14104635 0.074092396 -0.03945441 0.075082466 -0.025534209 -0.18867563 -0.20340295
0.0406461 -0.024708094 -0.11486999 0.084017515 0.017387029 -0.05148612 0.046941694 0.054924287
-0.039098732 0.19249326 -0.008787751 -0.03665738 -0.012956215 -0.009251412 0.0714496 -0.049672306
-0.0807857 0.037558593 0.05628436 0.025667459 -0.024400488 -0.10917638 0.019312685 0.10441153
0.023315936 -0.098532565 0.13918827 0.020318164 0.098814696 0.030464977 0.11204456 0.072121724
-0.106801085 -0.05751069 -0.028966233 -0.092365414 -0.03965708 -0.13358663 -0.07855653 -0.10909186
0.07029963 0.006896852 -0.05350459 0.03820468 0.041618813 -0.12875989 0.037835542 0.0237643
-0.112082615 0.11900977 -0.09306999 -0.0859692 -0.12281797 0.11988095 0.058098324 0.15245482
0.0028191213 0.045959108 -0.06219891 -0.09350054 0.021566713 0.025290774 -0.021278786 -0.050890543
-0.01189658 0.0034641281 0.032855216 -0.13891311 0.048939183 0.013198086 0.07425769 0.06654928
-0.11075598 0.07668929 -0.11631221 0.10976206 0.017238693 0.05776382 -0.0662425 0.097918585
-0.07684169 -0.10989939 0.0119984895 0.06131802 0.109972715 0.027561422 0.07141308 0.065467566
-0.076479234 -0.070695266 0.041363962 -0.08662072 0.057336852 -0.10705462 0.09119624 0.037464723

image_conv.3.bias f4 [32]
00000000: e13f 5fbc 88d4 24bd 8549 193d 8ecd b3bd
00000010: 9840 b1bd 085b e2bc c056 c4bd 40fe 4f3b
00000020: 1f9b e33c 5aef f23d 2a8b f03c efac ffba
00000030: d049 b0bd c0c5 68bd a4c1 b1bc 57a3 bcbd
00000040: 38f9 003d 8310 9e3d 6bc1 9c3d a49b 57bd
00000050: e73a 18bd 6cc5 f33d 34bc 4dbc 4e2c 01be
00000060: 3d9d 66bc 0ab1 e8b9 a435 3ebd 07fc acbc
00000070: 378c 9bbd a184 053d cc5a a4bd 5a73 623d
-0.01362607 -0.040241748 0.03742363 -0.08779441 -0.086548984 -0.027631298 -0.09586859 0.0031737238
0.027783928 0.11862059 0.029363234 -0.0019506494 -0.086078286 -0.056829214 -0.02169878 -0.09210842
0.031487674 0.07717993 0.07654079 -0.052638665 -0.03716555 0.119028896 -0.012557078 -0.12614557
-0.014075574 -0.00044382393 -0.046437874 -0.02111627 -0.07595103 0.032597188 -0.08025131 0.05528579

image_conv.5.weight f4 [64, 32, 2, 2]
00000000: f53d 38bd 2fc4 3abe 4be5 4dbd b28b 89bc
00000010: bd88 5f39 e144 543d eaa3 adbb f51c 6a3c
00000020: 881f 21bd b281 5b3d 3310 803d be24 08bd
00000030: f9c2 253d 6e57 4d3b 4e74 f83c 089f ecbd
00000040: 63c2 0fbc 6996 233d c6a6 793d 4a9a 963a
00000050: 1ba6 43bd 63ed 8bbd b413 89bd 0dc0 913d
00000060: 62f3 98bd c46e f5bc 7218 6a3d dbbc 463d
00000070: 4e58 9ebd 818e 8f3c 5813 2f3c dc23 a63d
00000080: 3ccb 133c 7d08 1a3d f6fe 21bc 3ed0 c93d
00000090: 4588 873a 89ef b9bc c293 a63c 5956 00bd
000000a0: d5f8 4b3c a08c 7e3a 60ce 9ebd 1cc2 e5bd
000000b0: 309b 2ebc f5af 5dbc 2782 b9bc 7629 703d
000000c0: d5b4 4f3d 3d03 adbc d7c0 2c3d 1e18 39bc
000000d0: e307 10be 9f2f 0cbd 2669 f5bd 3b7a 1dbd
000000e0: 3fba 803d 679e 06be de40 693b 70a8 c83d
000000f0: 6a5c 5a3d 55e3 39bc 8fe7 a13c f4f8 a0bd
00000100: 80dd fc3c e30b 6f3d d0c1 c33d d68e 053c
00000110: a641 033d d657 70bc e368 17bd e9d9 5d3c
00000120: 0ebd 14bd efd0 7e3d 7522 7c3d dcbc 7dbc
00000130: a601 18bc 8947 43bd 3a3c 423c 3ea5 6c3d
00000140: 10dc ab3d 5dbb 7bbd 457a aabd adcf 233b
00000150: 4408 bb3d 6cab bb3b 2704 0f3d 063d edbb
00000160: 1516 a6bc 7d34 d83d 1d21 2b3d c306 f33b
00000170: d2d0 58bd b8c1 8cbd b117 b0bc 607e 02bb
00000180: bb0e 9f3d 0b05 95bd 0164 643d 5186 61bd
00000190: 5402 99bc b0ab 37bd 56d9 c03b 5aa6 cebd
000001a0: dad2 7cbd 3fda 043b f192 363d 802d 2ebd
000001b0: 0a6a e03c 315a bfbc f5c8 aebd 14f6 4b3c
000001c0: 862a 23bc 1d5d d33d e975 7b3d d2c2 f13d
000001d0: 36b3 533d a390 85bd d564 97bd b58a b63c
000001e0: 0419 673d 8637 a1bc d934 963d 398f 3bbd
000001f0: 113e 4ebd 6662 733d 8920 993d e929 063d
00000200: f2ea e6bc 4e2b 1d3c 6670 85bd 9323 5f3d
00000210: 4147 633d 1691 87bc a382 8fbd 4961 863d
00000220: 5216 94bd 571d 3ebd f0f5 573d 85ed 33bd
00000230: 63e7 893c 49cb 943d ef11 37bc 88c9 a3bc
00000240: 3acc a73d 1a61 773c 158f fc3c f9ee edbc
00000250: 5a2b 9cbd d9b4 623c fc04 56bd ad3d 3bbd
00000260: 9a7c 94bd d014 9b3d d3fe 72bd b17a d13c
00000270: f1fc 943c a00d 7a3d fcb7 453d 0278 7dbd
00000280: fc7b 203d 40e6 37bd b697 543b cb25 03bd
00000290: c4fa 9abd 37b0 d83c ad92 71bd b91f b13d
000002a0: f7e7 113d b475 fabc 7901 54bd 59d8 a6bd
000002b0: 2888 36bd b531 6cbd e9b8 1b3c 5651 ad3c
000002c0: 4ffb 9c3d ffa8 423c b315 93bc 7c69 21bd
000002d0: b3b5 4bbc ac5f 3f3d ac8a aebd e3bc a5bd
000002e0: 8dd7 0e3d b45f dfbc 7f4d d6bc a34a 69bd
000002f0: 2810 71bd fe8f 87bd 6659 5cbd 7582 a5bd
00000300: 6524 2abd b13a 913d 6354 48bd 6b97 893d
00000310: aa65 98bd fbeb 273c fdf5 efbb bab2 88bd
00000320: ece0 0c3b e2c7 963d 8292 23bd 4c3e a63d
00000330: 0354 18bc 20f4 e4bc a3b6 323d 6f82 8d3d
00000340: 8a3d 9c3d 604f 563d 4ecb a1bd 3e7a 93bc
00000350: c78b 1d3c 74ff 24bd 9e2d 293d 8668 9fbc
00000360: 6af3 9bbd e41e 20bd fe82 69bd eaa6 0a3d
00000370: c6b9 83bd a985 b6bc 8bf4 143c 951c 1c3d
00000380: 3a39 8bbd 8dc0 793d 2456 68bd 43b8 8abd
00000390: e6ef 133d 686f 54bd 4b50 833d 1b0c 1c3d
000003a0: 4bb9 2fbd 70f2 9ebc 6c80 25bd 4781 09bc
000003b0: a069 5fb9 28bf 0cbb d195 6cbd 01f6 96bd
000003c0: 2b87 67bd 657e 743c d77d 143c fd3f 36bd
000003d0: 2db6 6abc 63a5 11bb 9787 813d e0aa a2bd
000003e0: ca45 21bd d3c8 4dbc c9d8 6dbc e738 3fbd
000003f0: 6a3d 343d ef15 08bd 8ae9 143c fcf4 4dbd
-0.04498096 -0.182389 -0.0502675 -0.016790245 0.00021317876 0.0518235 -0.005299081 0.01428913
-0.03933671 0.053590484 0.0625309 -0.033238165 0.040469144 0.003133263 0.030328896 -0.1155377
-0.008774373 0.039938364 0.060950063 0.0011490074 -0.047765832 -0.06832387 -0.06693211 0.07116709
-0.074682966 -0.029960044 0.05715222 0.04851995 -0.077316865 0.017524006 0.010685764 0.081123084
0.009020623 0.03760575 -0.009887448 0.09854172 0.0010340294 -0.022697227 0.020334128 -0.031332348
0.012449463 0.0009710286 -0.07754207 -0.11218664 -0.010657117 -0.013530721 -0.02264507 0.05863329
0.050709564 -0.021119708 0.042176094 -0.011297254 -0.14065509 -0.034225103 -0.11982946 -0.038446646
0.062855236 -0.13146363 0.0035591642 0.09797752 0.05331079 -0.011345704 0.019763736 -0.07859984
0.030867338 0.058360945 0.09558451 0.0081517305 0.03204503 -0.014669379 -0.036965262 0.013540723
-0.03631311 0.062210973 0.0615563 -0.015486922 -0.009277737 -0.047675643 0.011855179 0.057774775
0.08391583 -0.06145798 -0.08324102 0.002499561 0.09132436 0.005727222 0.03491607 -0.0072399406
-0.020274201 0.10556886 0.041779626 0.0074165775 -0.05293352 -0.068728864 -0.021495672 -0.001991175
0.077664815 -0.072763525 0.055759434 -0.055059735 -0.018677868 -0.04484147 0.0058852835 -0.10090323
-0.06172452 0.0020271686 0.044573728 -0.04252386 0.027394313 -0.023358436 -0.08534423 0.012448806
-0.009958869 0.10320494 0.061391745 0.11804737 0.05168458 -0.06521728 -0.07392279 0.022282938
0.05642034 -0.019679796 0.07334299 -0.045790885 -0.05035216 0.059420012 0.07476909 0.032754812
-0.028188203 0.009592844 -0.06515579 0.054477286 0.055487875 -0.016548675 -0.07007339 0.065615244
-0.0723082 -0.0464147 0.05272478 -0.04392769 0.016833967 0.07265336 -0.011173709 -0.019993559
0.0819325 0.015098834 0.030829946 -0.029044615 -0.07625456 0.013837063 -0.052250847 -0.045713115
-0.07250328 0.07572329 -0.05932505 0.0255712 0.018187018 0.06104815 0.048271164 -0.061882026
0.03918074 -0.044897318 0.003243906 -0.032018464 -0.07567361 0.026451213 -0.05897777 0.08648629
0.03562161 -0.030573703 -0.051759217 -0.08146734 -0.044563442 -0.05766459 0.009504535 0.021156948
0.07665121 0.011881112 -0.017954683 -0.03940724 -0.012433457 0.0467221 -0.08522543 -0.08092668
0.034873534 -0.027267314 -0.02616 -0.056955945 -0.0588533 -0.06619261 -0.053796194 -0.08081523
-0.041538615 0.070912726 -0.048908602 0.06718334 -0.07441266 0.010249133 -0.0073230253 -0.066747144
0.0021496369 0.07362343 -0.039934643 0.08117351 -0.009297374 -0.02794844 0.043631207 0.06909644
0.07628925 0.05232179 -0.079001054 -0.018002626 0.009615845 -0.04028268 0.04130327 -0.01945902
-0.07614787 -0.03909196 -0.05700969 0.033850588 -0.06431918 -0.022280531 0.009091507 0.038113195
-0.067980245 0.060974646 -0.056722775 -0.067734264 0.036117457 -0.051864058 0.06411799 0.038097482
-0.04290132 -0.019402713 -0.040405676 -0.0083926385 -0.00021306286 -0.0021476243 -0.057760064 -0.0737114
-0.05652539 0.014922713 0.009063206 -0.044494618 -0.014325661 -0.0022223822 0.0632469 -0.07942748
-0.039373197 -0.012560087 -0.014517018 -0.046685126 0.04400388 -0.033224043 0.009088883 -0.050282463

image_conv.5.bias f4 [64]
00000000: 23cf d63c edd4 57bc 5cd1 a4bc 172f 383c
00000010: d960 dcbb f923 96bc 4f02 ce3c 0e3a d5bc
00000020: ac55 bf3c bdc5 0dbd 26a0 1c3d 48ed b83d
00000030: b9a8 1abd 549d 64bd da84 4d3c d267 dabc
00000040: 015a 76bd 3cae 413d 389b 963d 17e2 f63c
00000050: c898 b03b 14d9 193c 00f6 89bd 2bf3 00bd
00000060: 47f6 d03c 33da 843c 9f3f 853d a22a 403d
00000070: b4ed 4e3d 5332 86bd 8cd8 eb3c 678a 203c
00000080: 426b 2fbd e351 babd 1672 c43d ce4d f0bc
00000090: 5691 88bd 3c67 73bd ce9d c43c 2e50 343d
000000a0: 21c0 243d da49 0b3b 59ff adbc e6b5 883c
000000b0: 9c3d 7cbc 4025 823d f140 2a3d c9e3 11bd
000000c0: dd12 c03c 1bac 32bd 3049 56bd a8fb 32bd
000000d0: 7223 a83d a3a2 053c eb16 9ebd bd19 923d
000000e0: 5316 a0bd 2b0e 363d bf83 de3c 81e4 8cbc
000000f0: c107 13bd 6843 90bd abe7 c63d 80aa 2dbd
0.026221817 -0.013173324 -0.020119362 0.011241696 -0.0067254123 -0.0183277 0.025147585 -0.02602866
0.023356281 -0.034612406 0.038238667 0.09029633 -0.037758563 -0.055814102 0.012543881 -0.026660834
-0.06014443 0.047285303 0.073538244 0.030137105 0.0053893067 0.009390134 -0.06736374 -0.031481903
0.02550806 0.016217327 0.065062754 0.046915658 0.05051966 -0.06552567 0.028789781 0.009798623
-0.0428269 -0.0909765 0.09592073 -0.029333975 -0.06668346 -0.059424624 0.024001028 0.044021778
0.04022229 0.0021253736 -0.021239923 0.016688298 -0.015395548 0.06354761 0.04156584 -0.035617623
0.023446495 -0.043621164 -0.05231589 -0.04369703 0.08209886 0.008156451 -0.07719215 0.071338154
-0.07816758 0.044447105 0.02716243 -0.017198803 -0.035896067 -0.07044107 0.09712156 -0.04239893

actor.0.weight f4 [64, 64]
00000000: 5257 b63c a2f9 15bd 6839 943b d812 26be
00000010: 1c97 5fbd b205 11be 1ca6 8a3e c9e1 dd3d
00000020: bc53 ccbd 328d c93d 3eee 833e a53f d23c
00000030: 3375 213e 0dba a3bb b801 4b3d fb2c 423c
00000040: 478b f03d 8b49 923d 600b 12be 3c7b f83c
00000050: 2c84 6bbd 4172 2a3e a167 8e3e efbf fcbd
00000060: 1630 3bbd 479c 153e 31aa 7b3d 3134 96bd
00000070: f895 f7bd 19a6 b33d c53a 87be b503 fbbc
00000080: 66a3 623b 51de b0bc 6992 89be 6230 96be
00000090: c617 bebd 183e 06be b588 d6bb 811e eabd
000000a0: efcd 78be 4cb8 e6bd 6f49 a7bc b6f7 8f3d
000000b0: d22e b73d 18ac 233e 7f4a 4cbe 9ba0 e5bd
000000c0: c36e 473e ea6b 453d c8ce 2e3d d790 41be
000000d0: ef9e 473e a1bc 153e 23ca 80bd afa2 a1be
000000e0: 80ac 3d3e ddba 59bd 01d1 db3d 8d50 39bd
000000f0: f4e7 ccbd d4aa debd 8b8f 1c3e 727e 15bd
00000100: 85db a53e 78d5 1ebe a90d 77bc 066e 313c
00000110: 7e99 1cbe 0b93 e53d 9ccc 293e 0319 2abe
00000120: c14a db3d 56ce e23d 656c c03d 97e5 1f3e
00000130: dfc9 553d a184 dc3d df9f 8dbd bb67 1fbe
00000140: 3424 b43d eb24 75bd 8050 4cbe 2f7b cfbd
00000150: 97b2 383d 7538 d53d 7467 6dbe 93da 2abe
00000160: 1d75 843d 1cfa 413d b827 28bc 1eca 7e3c
00000170: fdc6 18be 8c1e 1c3e 11c7 91be 9c01 cb3d
00000180: ee6d babe fcba f8bd 95d1 933d 29a3 9ebd
00000190: f138 9d3d 3ea5 853d 740d 99bd 1672 6d3d
000001a0: 8312 ecbd cbf5 60be e3b1 86bd 2746 64bd
000001b0: eebc b1bc 5cde 263c f927 46be 33a6 83bd
000001c0: 1e3e 2d3d d785 61be 938e 84be 1819 aa3d
000001d0: c620 943d b600 f8bc 65eb b6bd 7d12 0fbd
000001e0: 680b 203e 6144 c3bd d4ec d0bc 9e95 1f3e
000001f0: 66ba 863d 053c 2a3e 54ff b63b 0d20 023d
00000200: fbcc 663e 02d5 97bd bc51 b2bb 2b0c a13d
00000210: 9708 aeba 69d9 4c3e 850d 4bbc 4a04 bfbc
00000220: 7d3b 9abb a167 c7bd d890 80be c90d abbd
00000230: af42 153d 9400 593c d89f 9e3d d91d c7b9
00000240: 70d0 14be f221 af3a 087a 063e 3f07 953d
00000250: 942a b93d a9c0 b6be 544b 50be c350 93bc
00000260: 45bc 58be e639 6abe f372 fbbd ed0f f4bc
00000270: a5b2 2bbc c8fd 63bd 6a17 983e 18d3 cabc
00000280: 7c9d c9bd e8db ecbc 03a4 923c 2c0a f43d
00000290: d493 76be 5857 30be afd2 1a3e f2a9 593e
000002a0: a128 7e3d acc7 853e bd81 863d 3a69 7e3e
000002b0: 3e63 d93d 12ab a23d 2bde 523e 7f8b 723d
000002c0: e0e3 83bd 062e d6bc 9e32 1c3e e740 183b
000002d0: b2d5 8c3e 6326 f33d 90c6 403e 86d7 8cbd
000002e0: 5c8a 4a3e 0619 44bd e406 57bd d8bb 063e
000002f0: 1a7b 433e 232e 0e3e 2131 283e 4f39 91bb
00000300: 77bb 943d 6eba 043e e1ea c83d 9db3 443d
00000310: e6f1 d03d 017a 513d 7607 db3d 3fd0 8fbd
00000320: c436 46bd 2de4 5d3d cfad 3f3e 7013 65be
00000330: 3ba7 0a3d 86f5 403d 420d 03be 509b cfbd
00000340: 848b 903e 9752 6fbd a115 303c 20e2 4c3e
00000350: ac42 b93b e23d cd3d 0a6b f9bd b0ae adbd
00000360: 3ed5 d4bd d91b acbe f84d 89be e12a 0bbe
00000370: 000e 323d c8e3 0abb b10b 1c3a 999f 0dbe
00000380: b31c 873c 7372 4c3d fa49 98bd 90df 563e
00000390: 3080 48bd d147 ffbd 66ee f53d 867f 003d
000003a0: 59e7 3e3e 1d99 58bc 3db9 1b3c 0bdc b13d
000003b0: 0772 dcbd 2859 1b3d 9195 37bd 34b3 77bc
000003c0: 0372 3c3d b844 28be c7fe af3b 030a 063e
000003d0: 49a6 033e f6ef 07be 07df f93d 8e99 563e
000003e0: d1c1 b33c 2bfa aa3e aad5 16be 6a04 7dbc
000003f0: ddf0 d83d 706a b33d 3c9b 90bd 5df0 9dbe
0.022258434 -0.03661502 0.004523445 -0.16218126 -0.05458747 -0.14162329 0.27079856 0.10834081
-0.099769086 0.09841384 0.25767702 0.025665114 0.15767364 -0.004996544 0.049562186 0.0118515445
0.11745315 0.071429335 -0.14262152 0.0303322 -0.057499096 0.16645147 0.27813438 -0.12341296
-0.045700155 0.14610396 0.061441604 -0.073341735 -0.12089151 0.08771915 -0.26412025 -0.030641416
0.0034582256 -0.021590384 -0.26869515 -0.29333788 -0.09281878 -0.13109624 -0.0065470585 -0.114315994
-0.24297307 -0.112656206 -0.020420758 0.07029669 0.08944477 0.15983617 -0.19950293 -0.11212274
0.19475846 0.048198618 0.04267767 -0.18902908 0.19494222 0.14622737 -0.062885545 -0.3156943
0.18522835 -0.053156722 0.10733224 -0.045242835 -0.10005179 -0.10872427 0.15289132 -0.03649754
0.32394043 -0.1551112 -0.01507894 0.010829454 -0.15292928 0.11209687 0.16581959 -0.16611104
0.107076176 0.11074512 0.093956746 0.15614925 0.052194472 0.107674845 -0.069152586 -0.15566914
0.08795968 -0.05984966 -0.19952583 -0.10130917 0.04509219 0.10411159 -0.23183995 -0.16684942
0.0646765 0.047357664 -0.010263376 0.015551118 -0.14919658 0.15246028 -0.28472188 0.09912416
-0.36411995 -0.121450394 0.07217709 -0.07745964 0.07676876 0.06525658 -0.07473269 0.05797013
-0.11526968 -0.21968763 -0.06576898 -0.055730965 -0.021696534 0.010184851 -0.19351186 -0.06428184
0.042295568 -0.22023712 -0.25890025 0.083055675 0.072328135 -0.030273777 -0.08931617 -0.03492974
0.15629351 -0.095345266 -0.025503553 0.15584418 0.065785214 0.16624458 0.0055846367 0.031768847
0.22539131 -0.07413675 -0.0054418724 0.07863649 -0.0013277706 0.2000481 -0.01239336 -0.023317475
-0.0047067986 -0.097365625 -0.25110507 -0.08352239 0.036440548 0.013244767 0.077453315 -0.00037978476
-0.14532638 0.0013361557 0.13132489 0.07276773 0.09041324 -0.35693863 -0.20341235 -0.017982846
-0.21165569 -0.22873649 -0.12277784 -0.02979275 -0.010479604 -0.055661947 0.29705364 -0.02475886
-0.09844491 -0.028913453 0.017900473 0.11916003 -0.2407983 -0.17220819 0.15119432 0.21256235
0.062050465 0.261289 0.06567714 0.24844828 0.10614632 0.07942785 0.20592563 0.059215065
-0.06439948 -0.026144993 0.15253684 0.0023232044 0.27506787 0.11872556 0.18825746 -0.06877045
0.19779342 -0.047875427 -0.052496806 0.13157594 0.19089928 0.13884787 0.16424991 -0.0044318805
0.072623186 0.12961742 0.098104246 0.048022855 0.102023885 0.051141743 0.106947824 -0.07022142
-0.048392072 0.054172684 0.18718646 -0.22370696 0.03385089 0.04710915 -0.12798026 -0.101370454
0.28231442 -0.058428373 0.010747344 0.20008135 0.0056537 0.10021569 -0.12178619 -0.084805846
-0.10392235 -0.33614996 -0.26817298 -0.13590576 0.043470383 -0.0021192897 0.000595267 -0.13830413
0.016493177 0.049913835 -0.07435985 0.2098372 -0.048950374 -0.1246487 0.120083615 0.031371616
0.1864294 -0.013220099 0.0095046135 0.08684548 -0.107639365 0.037926823 -0.044820372 -0.015118409
0.046007168 -0.16432464 0.005370948 0.13089757 0.12856402 -0.13275132 0.12200742 0.20957014
0.021943005 0.33393988 -0.14729944 -0.015442947 0.10592816 0.08760536 -0.070608586 -0.30847445

actor.0.bias f4 [64]
00000000: c3a3 d03c 88d1 b83c cbfd c6bc 5029 21bc
00000010: 39e6 5abc 0c0e 07bc 1e8b ab3b 389f 303c
00000020: 17cd 62bc 70be 4a3c d1af 823b 2159 993a
00000030: a707 51bc c4b9 a8bc d6b6 013c d54b 44bc
00000040: 645e 1abc 67ed 903c 5e06 83bb a32b 5d3c
00000050: 1f2d 84bc e431 eabb 3ade eabb 2dfe 2abb
00000060: 873b 8ebb f434 433b d55e c03c eccc 103c
00000070: 4c48 cbbb 2b40 c03c f3eb b3bc 9391 373c
00000080: 4040 71bb 0a48 803b 02c5 21bc b2af f1bb
00000090: 70ff 60bb 850a 463c d633 dd3c 431c b23c
000000a0: 97cd 363c bfae 0bbc 1866 2c3c 65f8 9ebb
000000b0: 41ee 3b3c 1d18 3f3a 8ccc 523c ea38 313c
000000c0: 5429 7ebc 2cfa 26bb 4d40 05bc 9fd6 2cbc
000000d0: e3c4 a53b cb8a 5bbc a2d8 0b3b 1578 77ba
000000e0: 3963 8c3b 5068 90bc 385b 0d3c fd2e 223c
000000f0: 4788 c53c 893b c7bc 4fc7 873c 9191 133b
0.025468713 0.02256085 -0.02429094 -0.00983651 -0.013360553 -0.008243095 0.00523509 0.010780148
-0.013842843 0.012374505 0.003988244 0.0011699536 -0.012758172 -0.020596392 0.007917127 -0.01198097
-0.009421919 0.017691327 -0.0039985618 0.013499173 -0.016134797 -0.0071470607 -0.0071676048 -0.0026091442
-0.0043405923 0.0029786201 0.02348272 0.00883792 -0.006203687 0.023468098 -0.021963095 0.011204141
-0.0036811978 0.0039148377 -0.0098736305 -0.007375681 -0.003433194 0.012087469 0.027002256 0.021741992
0.011157415 -0.008525549 0.010522388 -0.0048513883 0.011470378 0.0007289665 0.012866151 0.010816792
-0.015512783 -0.0025478704 -0.008133006 -0.0105492165 0.005058871 -0.01339979 0.002133884 -0.0009440196
0.004284289 -0.017627865 0.008627705 0.009898898 0.024112834 -0.02432038 0.01657453 0.0022517184

actor.2.weight f4 [7, 64]
00000000: 5d3f 773d 95df 503d dc2c 02bf 260d 1bbe
00000010: caa5 4abd d20d af3c c542 a63d 61ce 1e3e
00000020: 04f5 8abd 1fa7 083d 399a 4abe f637 c1bd
00000030: 231b b3be 24d9 393d 3984 d03d 8ed5 b9be
00000040: 5142 813e d4d8 5c3e 9d08 d5bd 7f37 043d
00000050: 06ae c0be 3164 3dbe 5198 bbbd 4a96 f83d
00000060: dd02 8f3e 8d6c 5b3e 1e3d 7e3d 19e0 8f3d
00000070: 2b9b 68bd 807b fa3c ee1e a4bd 2b56 213e
00000080: 5663 d13c 93b6 943b 5b57 853d 00d1 c5be
00000090: 33a2 d83c e015 023e 46d6 003e a18b 5abd
000000a0: 9835 743e 1ab4 a6be d1cd 893d eb6c 0f3e
000000b0: e739 32bd ae29 24be f9a1 f43d 6c9a 783e
000000c0: 1dfd 02bd 51ae a43c a166 48be 53b5 1fbe
000000d0: 4aca 53be 9191 6b3c 5de7 51be 6949 a8bd
000000e0: f2db cbbd 1a51 f4bd 4d90 503d 8a82 04be
000000f0: b3bf 683e 9714 3fbd 7cf2 153e 59e6 29be
00000100: 6946 ff3d fbc8 103e 4037 9dbe 5252 77bc
00000110: 22c2 1bbd ea67 09be 98ac 843e 526d 5b3e
00000120: 9372 afbd 1f72 053d b67d 433e 64a4 8a3e
00000130: d625 223e 1754 21bd 5bdd aabd 4ceb cc3d
00000140: 1e7d 5dbd 6980 8c3e e7bb e53d 0f5c 0a3e
00000150: d252 6abb 585a 7c3d 7ab2 8ebe 6072 8cbe
00000160: 28cf 67bc 8437 10be 78a3 653d d5cd 35be
00000170: bd40 923c 8fa6 853e 932f 2cbe 0814 9cbe
00000180: 009b 8cbd b8a0 52be bcc9 07be 0213 dcbd
00000190: 1944 7bbe 76af ea3e b6fb e03e 5f11 303e
000001a0: 9beb e53d 930f 62bd a1e6 80bd 0937 703d
000001b0: e197 0abe 1484 68bd ff3f cebd 46e5 99bd
000001c0: e1a5 35bd fc50 993d 602b 543e 65f1 3bbd
000001d0: ef23 953d 5db6 da3d f102 a33e 9fa1 16be
000001e0: 2381 afbd 9c46 c0bd 758f 323e 0912 cbbb
000001f0: 548d 54be 59f3 983d 2e32 54be 40b2 903e
00000200: 3b10 40be d86f c3bd 8600 31bd a6a5 013e
00000210: 5182 21be 586c f93a b177 0bbd 54d6 29be
00000220: bb8a 08bc 45fe efbd aa4a 82be bf14 8cbd
00000230: 8247 323e 8160 d33d b76b 983e 42fe abbc
00000240: 19fc 6ebe 147e 30be adf3 95bc 9bd7 863c
00000250: 5f5b 6c3e 84c0 813b 9fae 27be 6636 323d
00000260: f0c6 0bbd 6f23 813e 7d93 c9bb 4f46 dc3d
00000270: fef5 843e 1533 d5bc f8b7 f73c 4774 75be
00000280: cf99 41bc c906 baba 9310 06be 4b64 583e
00000290: a218 0b3e 8555 2fbe 6a53 143e fad1 9a3d
000002a0: a755 04be b016 8e3d 1abc cbbd e3db 96be
000002b0: 65d8 f13e de59 6c3e 54c1 90ba 4bab 19bd
000002c0: 9afc ee3d f012 d6bd 51f8 873e 1d26 51bd
000002d0: 013e 1abd acd8 67be 4988 523c 195c 953e
000002e0: 0c32 e8bd 9825 023e 835e efbd 735c 583c
000002f0: 721a 533e d9f0 c3bc 2278 633d bb62 89bd
00000300: 4851 58be 7f98 3cbe cbf2 c1bd 72b1 293e
00000310: 5af5 223e 43d2 b8bd 98c1 e83c c678 87bd
00000320: ff31 8f3d 96d5 edbc 0840 aabd 20e2 1f3e
00000330: 98b2 a6bd 33b9 9e3d 0ff6 36bd 54e3 1dbe
00000340: 5521 ef3d b58d 6ebc 821f 6b3e 882b 2abd
00000350: 1b9f 1c3d 5a3e 9abc 4da0 273d 19f2 16bd
00000360: 18eb 033e 150f 063c 0279 82bd da4b 19be
00000370: c06d 7c3c 8fae 2dbe bdd8 5a3d 2f28 40bd
00000380: 67ea ce3d 16f5 95be eccd b0bd 92a7 30bd
00000390: b9d2 04be 9f49 ad3c f88a 0b3e d2b7 8fbd
000003a0: df00 6a3d 2465 f43d 8bab 26be ed40 01be
000003b0: 9c97 3fbe 623c e23d 3705 dfbd c24a 70bd
000003c0: 8db6 b4bc dff4 1bbe 818c 113e 7d96 03bc
000003d0: 16f1 eebd d1d6 05bd b0c1 0cbc e2bc 363e
000003e0: 38a9 7bbe bd37 6cbd 99d8 39bd 5206 e7bd
000003f0: 0eaa a9bc 294c 343e 2eb1 86be 584a 47be
0.060363162 0.050994474 -0.508497 -0.15141734 -0.049474515 0.021368895 0.08118204 0.15508415
-0.06785014 0.033362504 -0.19785394 -0.09434502 -0.3498164 0.045373097 0.101814695 -0.36295742
0.25245908 0.21567088 -0.104020335 0.032279488 -0.3763277 -0.18495251 -0.091599114 0.1213804
0.27931872 0.21428128 0.062070005 0.07025165 -0.056788605 0.030576468 -0.08013712 0.15755527
0.025560062 0.004538366 0.06510802 -0.38636017 0.02644453 0.12703657 0.12581739 -0.053355817
0.2384857 -0.32559282 0.067287095 0.14006393 -0.04351225 -0.16031525 0.11944956 0.24277657
-0.03197967 0.020102652 -0.195704 -0.15596513 -0.20682636 0.014377967 -0.20498414 -0.08217127
-0.099540606 -0.119295314 0.050918866 -0.12940422 0.22729377 -0.046650495 0.14643282 -0.16591777
0.124646015 0.14139168 -0.30706215 -0.01509531 -0.038026936 -0.13418546 0.2591293 0.21428421
-0.08566775 0.032579537 0.19090924 0.27078545 0.15834746 -0.039386835 -0.083430015 0.10005817
-0.0540744 0.2744172 0.1121748 0.1351168 -0.003575493 0.061609596 -0.27870542 -0.2743101
-0.014148511 -0.14083678 0.0560641 -0.177543 0.017853135 0.26103637 -0.16815023 -0.30484033
-0.068655014 -0.20569122 -0.1326055 -0.10745813 -0.24537696 0.4583699 0.4394204 0.17194127
0.11226579 -0.055190634 -0.06293989 0.058646236 -0.135345 -0.056766585 -0.100708 -0.075144336
-0.044347648 0.0748615 0.20719671 -0.04588451 0.072822444 0.10679314 0.31838182 -0.14710091
-0.08569553 -0.09388468 0.17437537 -0.0061972183 -0.20757037 0.0746829 -0.20722267 0.28260994
-0.18756191 -0.09542817 -0.04321339 0.12660846 -0.15772368 0.0019029481 -0.034049693 -0.16585666
-0.008333857 -0.1171842 -0.2544759 -0.068398945 0.1741009 0.10321141 0.2976968 -0.020995263
-0.23338355 -0.17235595 -0.01830467 0.01646023 0.2308173 0.003959717 -0.16375206 0.04350891
-0.03412527 0.25222346 -0.006151615 0.10755598 0.25968927 -0.026025334 0.03023909 -0.23970138
-0.011816456 -0.0014192696 -0.1309226 0.21132009 0.13583615 -0.17122467 0.14484945 0.07559581
-0.12923299 0.06937921 -0.09947987 -0.29464635 0.47235408 0.23081157 -0.0011043944 -0.037516873
0.11669274 -0.10452831 0.26556638 -0.05106174 -0.037656788 -0.22641248 0.012849876 0.29171827
-0.11337671 0.12709653 -0.116879486 0.013205635 0.20615557 -0.023918556 0.05553449 -0.067082845
-0.21124756 -0.18417548 -0.09470137 0.16571596 0.15913907 -0.09024479 0.028412625 -0.066148326
0.06991958 -0.02903251 -0.08312994 0.15613604 -0.08139533 0.07750168 -0.044668254 -0.1541875
0.116762795 -0.014560153 0.22961238 -0.04154542 0.038237672 -0.01882856 0.04092436 -0.036851976
0.1288265 0.008182307 -0.06370737 -0.14970341 0.015407026 -0.1696112 0.053429354 -0.046913322
0.101033024 -0.29288548 -0.086330265 -0.043128558 -0.1297101 0.02115327 0.13627231 -0.07017483
0.057129737 0.119333535 -0.16276376 -0.12622423 -0.18710178 0.11046673 -0.108896665 -0.058665045
-0.022059703 -0.1523013 0.14213754 -0.008031485 -0.11667077 -0.032675568 -0.008591101 0.1784549
-0.2457627 -0.057670344 -0.04537258 -0.112805024 -0.020710971 0.17607178 -0.26307052 -0.19461954

actor.2.bias f4 [7]
00000000: 67cc 763c 6fe3 2b3c c0d4 da3b 2bf6 7abc
00000010: 385e 3fba 4c00 9bbc d7fd fcbb
0.015063382 0.010491236 0.006678194 -0.01531748 -0.00073001115 -0.01892104 -0.0077206898

critic.0.weight f4 [64, 64]
00000000: d305 123e 5017 91be 2db2 123d dbb0 ab3d
00000010: be81 543d 7260 34ba 95d3 4ebd 9b8a c33d
00000020: d41e 39bd f3fe 34bd e377 933c 911a fe3d
00000030: 044c dcbc 1d71 8bbc 828c bbbd c7c9 30bd
00000040: d185 573e 30c0 12be d2b9 59bd c44f 2fbe
00000050: de27 703d a4f7 b43a c034 053e 73d4 533c
00000060: b2ee 56bd fb5a 01be b18d 093e edb5 0dbd
00000070: 21fa d8bc 941d 9fbc 4fa5 89be a591 483e
00000080: fa36 0fbe 5eb4 083e 8bbd 063d 9664 9dbe
00000090: 6e64 7abe da03 b6bd 2464 c33c 269c 003e
000000a0: bba0 2bbe 69b8 56bd a69d 033d 8322 b23d
000000b0: a10b 563d 4d41 24bc 5107 e63d fc58 f0bc
000000c0: c2af 493d 3184 083c d9c8 4e3e b541 f83d
000000d0: 603a 093e d044 c4bd 6120 403e 88f3 34bd
000000e0: 1e68 3fbe b350 6bbe bcfe 9bbc c587 2cbd
000000f0: 22fc 913e 2edf 0c3d c546 6cbd b9a1 153d
00000100: fc23 643d 93ad d13d 8dc4 87be 77f6 09be
00000110: 18ad b3bd d69d e5bc ba3f 47be e213 0b3e
00000120: 3e49 8a3c 566f 12bd e370 1cbe 8696 efbd
00000130: 1868 103e 984c c73d db44 973c 3eeb cfbd
00000140: e614 76bd 88be aebd d7a8 08be 2a2f 38bd
00000150: fc32 b03c deda d23d 812c 413d a1e0 253c
00000160: b0f9 08bc 3191 4fbc 9d56 34be fae6 503d
00000170: 88a7 6cbd b90d f3bc c682 8d3d a418 8d3e
00000180: 60ae 45be 3ffa 57bd 5b0e 84bd aae9 51bc
00000190: 1630 b93d 4342 0b3e ad07 65be 1edb ffbc
000001a0: 7a03 6cbe e454 133e fef5 5b3e 4661 443c
000001b0: 8910 643d 2bec 183e 96ea d1bc 892f cebc
000001c0: f5be 4fbe 390c 823e acf7 82bd 4d57 b0bd
000001d0: d5ae 82bd e49a 13be 017a 3dbe 4cc5 84bd
000001e0: 4393 ee3d e610 983d 6070 333e a635 5d3e
000001f0: 458d ff3d 8a77 dfbb 4f53 db3d e4e5 42bd
00000200: b2f4 00be e79e 96be bc27 93bd 0094 7bbe
00000210: 8748 cfbd 134d d0bd 5853 1d3d cf2d 6f3d
00000220: 2fd1 a83c 22e3 e4bd 48dc e9bd 948c 67bd
00000230: 194e f83d ef4d 0dbe 2183 d2bd 7616 853d
00000240: 921a 2abc 8094 043e 038c dcbc b773 1e3d
00000250: 2f7a 88bd d000 223e 437f e6bc 0cd8 3dbe
00000260: b5dd 063d 3f8e e5bd ce70 08ba 5994 023d
00000270: 4972 fb3d b1b5 093c 00aa 76bd 37f4 4c3d
00000280: fed8 febc a78b fd3d 2869 86bd f10c 1dbe
00000290: 5240 9bbd f01b 09be 72de 3abe 6cac b73b
000002a0: 47f2 95be 4530 273e 5a15 84be d47a 153e
000002b0: 655c 1abe c04f 0d3e f2a8 303e 72eb 003e
000002c0: 91e5 193d 61d8 ac3d 3155 38bc cb2d 0cbc
000002d0: c37e f2bd 1f2f d23c 3e76 05be dcd7 9cbd
000002e0: 8851 123e af93 9e3d 9044 653e a457 b0bd
000002f0: 5a91 dfbd ab2d 6b3e 9140 db3d 965b de3d
00000300: 8991 e43d 5269 5dbd d4fd 2b3e 7b98 1cbe
00000310: f351 1cbe 2b3a 54be b749 543c 356b c2bc
00000320: 0a1c 7b3d 9a75 3dbd 882d 21bd 115a f6bc
00000330: ddc1 f7bd 1e09 c8bd 5982 88bd c284 4abc
00000340: cf57 123d ed06 3f3d c7dd e0bc 8477 273d
00000350: c8c1 2dbd dc00 07be cad3 5d3e 7a96 a73d
00000360: 541f 263d ecb0 e0bd 07c3 25bd e2f3 d4bd
00000370: b313 dcbd f7b0 363e 1583 2dbe 51f3 e43d
00000380: e8c0 8cbd 36a9 8f3d d5ef 08bd 5254 52be
00000390: 47c8 7e3e c1ea 81be f3fd ecbd bdda a63d
000003a0: 36a3 703b a64a ea3d 7cef 923e 409a 77bc
000003b0: abbe 413d 8d3c 683e 28a7 90be 2343 3e3d
000003c0: ea5c 8f3d 10fa 1a3d 45d5 11ba 3a25 7fbe
000003d0: 3765 ef3d a0cb 8ebd 610d d83c 1a33 4cbd
000003e0: ffb5 303d a741 97be 9b56 4ebd 16a5 8abc
000003f0: a3aa 81bd a85e e2bd 5070 343d 4e38 20bd
0.14260034 -0.283381 0.035814453 0.08383342 0.051881544 -0.00068808265 -0.05049475 0.09547921
-0.045195416 -0.04418845 0.018001502 0.12407411 -0.026891716 -0.01702171 -0.09157659 -0.04316118
0.2104714 -0.14331126 -0.053155728 -0.17120272 0.05863177 0.0013806713 0.13008404 0.01292907
-0.05247373 -0.12632363 0.13432957 -0.034597326 -0.026486458 -0.019423284 -0.26883933 0.19586809
-0.13985816 0.13350055 0.032895606 -0.30740803 -0.24452373 -0.088874534 0.023851462 0.12559566
-0.16760533 -0.05242196 0.032132767 0.08697989 0.052257184 -0.010025335 0.11231864 -0.029339306
0.04923988 0.008332298 0.20193805 0.121219076 0.13401175 -0.095834374 0.18762352 -0.044177562
-0.18692061 -0.22980003 -0.019042365 -0.042121667 0.28512675 0.03439253 -0.05768468 0.036531184
0.05569838 0.10238185 -0.26517144 -0.13472925 -0.087732494 -0.028029364 -0.19457904 0.13581803
0.016880628 -0.03575071 -0.15277438 -0.11698632 0.14102209 0.09731406 0.01846545 -0.10152291
-0.060078524 -0.08532435 -0.13345657 -0.044966854 0.021508686 0.10295652 0.047161583 0.0101243565
-0.008360311 -0.012668894 -0.17611165 0.051001526 -0.057776958 -0.02966963 0.06909709 0.27557862
-0.193048 -0.052728888 -0.064480506 -0.0128120575 0.09042375 0.13599496 -0.2236621 -0.031232413
-0.23048201 0.14387852 0.21480557 0.011986082 0.05567983 0.14933841 -0.025624555 -0.02516915
-0.20287688 0.2539995 -0.06394896 -0.08610401 -0.06381003 -0.14414555 -0.18503572 -0.06482944
0.11649182 0.07425098 0.17523336 0.21602497 0.12478117 -0.00681967 0.10709249 -0.047582522
-0.12593344 -0.29418108 -0.07185313 -0.24568176 -0.10121255 -0.10170951 0.03840956 0.058393296
0.020607559 -0.11176135 -0.114189684 -0.05653055 0.12124271 -0.1379926 -0.10278917 0.06498425
-0.010382311 0.12947273 -0.026922232 0.038684573 -0.0666393 0.15820622 -0.028136855 -0.18539447
0.03292628 -0.11208772 -0.00052047975 0.031879757 0.122776575 0.008405135 -0.06022072 0.05003759
-0.03110933 0.12380152 -0.06563026 -0.15336968 -0.075806275 -0.13389564 -0.18248919 0.005605271
-0.29286405 0.16327007 -0.2579754 0.14597636 -0.15074308 0.13799953 0.17251948 0.12589815
0.037572447 0.084397085 -0.01125078 -0.00855584 -0.11840584 0.025657235 -0.13033387 -0.076583594
0.14288914 0.07743012 0.22389436 -0.08610466 -0.109163955 0.2296664 0.107056744 0.108573124
0.11160571 -0.05405552 0.16796046 -0.15292542 -0.15265636 -0.20725314 0.012957028 -0.02373276
0.061306037 -0.04625473 -0.039350063 -0.030072244 -0.12097523 -0.09767364 -0.06665487 -0.0123607535
0.035728272 0.046637464 -0.027449502 0.040885463 -0.042421132 -0.13183922 0.21662822 0.08182998
0.04055722 -0.10971245 -0.040469196 -0.103980795 -0.10745945 0.17840944 -0.16944535 0.111792214
-0.068727314 0.07014696 -0.033431847 -0.20539978 0.24881087 -0.25374416 -0.115718745 0.0814719
0.0036718375 0.11440019 0.28698337 -0.01511246 0.047300976 0.22679348 -0.2825253 0.046450745
0.07000144 0.037836134 -0.00055630907 -0.24916545 0.11689227 -0.06972432 0.026373567 -0.04985342
0.043142315 -0.29542276 -0.050375562 -0.016924422 -0.063313745 -0.110532105 0.044052422 -0.039116196

critic.0.bias f4 [64]
00000000: 5553 85bc af12 a1bc f16c 93bc 5586 93bc
00000010: 598a b43c 771a 9fbc 5d93 9d3c 7289 9ebc
00000020: 5c6b 9dbc 0a67 a43c 9055 c83c 8f23 a63c
00000030: 5545 aa3c f4f1 89bc 0796 8e3c c4fb a43c
00000040: dad5 a5bc e9a6 9ebc aa98 a1bc 89db a43c
00000050: 815f 98bc b26a a63c ec21 9a3c 34d3 a73c
00000060: 01d7 a3bc 87e0 b03c 2761 b03c 3b8f 923c
00000070: 1c98 a73c ca6d b2bc 055a a4bc 5a19 9f3c
00000080: b132 95bc cf66 b3bc d61e b6bc f682 a6bc
00000090: 2d0b 97bc 296c a03c d872 a23c 0aa1 a5bc
000000a0: 3ce5 59bc fc35 9e3c f73d 85bc 7f64 a2bc
000000b0: 6aac ca3c 4a03 9fbc dfa1 963c 4082 ca3c
000000c0: c131 ad3c 0a01 9ebc fa37 a2bc bf81 b2bc
000000d0: b3ee 9dbc ebc5 a53c 8f53 85bc ca69 d2bc
000000e0: 3d61 84bc a641 983c 9bec a4bc 91c4 a3bc
000000f0: 041c b33c 11e9 943c d28d a2bc 0a16 9ebc
-0.016275087 -0.01966223 -0.017996283 -0.01800839 0.022038626 -0.0194218 0.019235307 -0.019352648
-0.019216232 0.020068664 0.024454862 0.020280628 0.020785013 -0.016839005 0.017405523 0.020139582
-0.020243574 -0.019366698 -0.019726116 0.020124214 -0.018600227 0.020314548 0.018815003 0.020486452
-0.019999983 0.021591438 0.0215307 0.017890563 0.020458274 -0.021780867 -0.020062456 0.019421268
-0.018212648 -0.021899609 -0.0222315 -0.020326119 -0.018437946 0.019582825 0.019830152 -0.020218391
-0.013299283 0.019312851 -0.016264899 -0.01982331 0.024740417 -0.019410748 0.018387733 0.024720311
0.021141889 -0.019287605 -0.019802082 -0.021790383 -0.01927886 0.020235976 -0.016275195 -0.02568521
-0.016159648 0.018585991 -0.020132354 -0.019991191 0.021863945 0.018177541 -0.019843016 -0.019297618

critic.2.weight f4 [1, 64]
00000000: 4965 e1bc 5365 debd 1d4b f5bc 476a 90bd
00000010: 8dba 5a3e 6704 86bd d2b0 393e c233 1bbe
00000020: 9f84 84be 8f4c a73d 756f 883d 0ede b53d
00000030: e107 103e 8150 0fbc 37b3 db3c 1b9f 243e
00000040: f2b8 3cbd 74b9 0bbe 0d5d babc 203e 623e
00000050: 1d7c 49bd 6308 563c 4464 35bb cf72 043e
00000060: e438 50bd 176e a23d b22b 2f3d 45a5 003d
00000070: 2514 9e3e e04a 93be 4d58 abbd 7fc6 7e3d
00000080: be7e 68bd 79f2 92bd bd75 cebd f369 98bc
00000090: 4266 81bd 3d3d 053e dbef 053e 4a33 32be
000000a0: 2db9 47bc 0b86 ea3c 48fc 1abd 43c0 a3bd
000000b0: 77ff d83d 81f3 50bd 5c72 bc3c 53af 923c
000000c0: 7c19 643c e401 5bbe 30cf f7bd 9b7b 69bd
000000d0: 6a02 96be 0607 e03d b28f 10bc 4363 a0bc
000000e0: 6404 66bc b8cc 283e 7674 d6bc fca7 1abe
000000f0: c747 193e 40ee 113e 79df cebd 5fcf 8abd
-0.027514117 -0.1085917 -0.029943043 -0.07051521 0.21360226 -0.065438084 0.18133858 -0.15156463
-0.25882432 0.08168899 0.06661884 0.08880244 0.14065506 -0.008747221 0.026818855 0.16076319
-0.046074815 -0.13644964 -0.022749448 0.22094011 -0.04919063 0.013063523 -0.0027678171 0.12934421
-0.050835505 0.07931154 0.04276628 0.031407613 0.30874744 -0.28768063 -0.083664514 0.06220102
-0.056761496 -0.07175154 -0.100810505 -0.018605208 -0.06318332 0.13011642 0.13079779 -0.17402378
-0.012190145 0.02862837 -0.03783825 -0.079956554 0.10595601 -0.051013473 0.02300375 0.017905867
0.013922092 -0.2138744 -0.12100065 -0.057002645 -0.29298717 0.109388396 -0.008823322 -0.019578582
-0.014039133 0.16484344 -0.02617858 -0.15103143 0.14968787 0.14251041 -0.10101218 -0.06777834

exp_avg f4 [16, 3, 2, 2]
00000000: 03d4 673a 8f49 b339 2651 ba39 a186 b439
00000010: b84c 143a a1f9 ff39 b88f 113a f120 093a
00000020: 0000 0000 0000 0000 0000 0000 0000 0000
00000030: 8d08 6439 a159 f138 98b9 1139 34f0 5f39
00000040: b9c8 9a39 64c3 6e39 a401 b639 8a91 4339
00000050: 0000 0000 0000 0000 0000 0000 0000 0000
00000060: 9cb6 36b8 e518 a1b8 743b a1b8 8fbc 18b8
00000070: 6d89 8fb9 0f07 92b9 6f7b 8db9 4e7e 88b9
00000080: 0000 0000 0000 0000 0000 0000 0000 0000
00000090: 4d32 f838 2f37 2038 2009 ab38 3453 0039
000000a0: 82ad 2236 2128 10b7 f68a 8e39 fa9e d439
000000b0: 0000 0000 0000 0000 0000 0000 0000 0000
000000c0: 2acd 54b8 ef9a 57b8 0403 39b8 33db 3db8
000000d0: b75e 16b9 6ed0 bcb8 e643 e7b8 4d60 f3b8
000000e0: 0000 0000 0000 0000 0000 0000 0000 0000
000000f0: c56c 61b8 a5ab 5a39 9362 4538 4db1 d537
00000100: 71ec 4ab9 0ccb 95b9 1fa4 62b9 df84 dbb9
00000110: 0000 0000 0000 0000 0000 0000 0000 0000
00000120: 778a 2039 e049 7436 beab 8637 aa92 2c38
00000130: d6c3 00b7 9b7e f3b7 e838 6638 8a41 7538
00000140: 0000 0000 0000 0000 0000 0000 0000 0000
00000150: 6b3e 01b7 1c50 a4b9 7468 a6b9 77b4 c3b9
00000160: ad8e 89ba d110 47ba 994d 4cba 2f94 c5b9
00000170: 0000 0000 0000 0000 0000 0000 0000 0000
00000180: 645d d938 f3d5 4a38 0dcb d938 04c2 2a38
00000190: 04c8 7039 2aba d737 1567 8539 fa75 80b8
000001a0: 0000 0000 0000 0000 0000 0000 0000 0000
000001b0: 6bd9 4439 1925 b238 11fc fd38 5016 9339
000001c0: 44a1 9a39 9a18 5839 b61e b639 adf9 a239
000001d0: 0000 0000 0000 0000 0000 0000 0000 0000
000001e0: 41f3 c338 6b9b 8139 aa0a b639 2804 7338
000001f0: 1ed1 1239 7916 013a 0957 99b9 9127 1db8
00000200: 0000 0000 0000 0000 0000 0000 0000 0000
00000210: a695 b5b8 2f8a d9b8 029e 60b8 d08d f2b8
00000220: 1379 efb9 dc8f 98b8 7a60 f4b9 ff7e 82b8
00000230: 0000 0000 0000 0000 0000 0000 0000 0000
00000240: 7677 fd37 1237 52b5 ea3a 8537 9ede 12b7
00000250: 0e8e 0537 970b 3b38 4124 c838 f1dd e638
00000260: 0000 0000 0000 0000 0000 0000 0000 0000
00000270: 06a9 3438 06a9 3438 f79f 9639 c041 4538
00000280: b200 4937 b200 4937 5b99 8a38 1a3c 0538
00000290: 0000 0000 0000 0000 0000 0000 0000 0000
000002a0: 6658 2fb5 e684 82b7 ae6a 13b8 8d1d e738
000002b0: 6779 d438 65b3 e037 c237 95b8 7658 4fb9
000002c0: 0000 0000 0000 0000 0000 0000 0000 0000
000002d0: 0000 0000 0000 0000 0000 0000 0000 0000
000002e0: 0000 0000 0000 0000 0000 0000 0000 0000
000002f0: 0000 0000 0000 0000 0000 0000 0000 0000
0.0008843543 0.00034196346 0.00035537145 0.00034432582 0.0005657184 0.00048823378 0.0005552727 0.0005231044
0.0 0.0 0.0 0.0 0.0002174696 0.0001150847 0.00013897417 0.0002135642
0.0002952272 0.00022770237 0.00034714967 0.00018650867 0.0 0.0 0.0 0.0
-4.356225e-05 -7.681715e-05 -7.688152e-05 -3.6415233e-05 -0.00027377476 -0.0002785255 -0.0002698558 -0.00026034046
0.0 0.0 0.0 0.0 0.00011834931 3.8198366e-05 8.155615e-05 0.00012238027
2.4240876e-06 -8.592412e-06 0.00027187885 0.00040554238 0.0 0.0 0.0 0.0
-5.0735813e-05 -5.1404288e-05 -4.4110246e-05 -4.5265257e-05 -0.00014340399 -9.0033616e-05 -0.000110275854 -0.0001160508
0.0 0.0 0.0 0.0 -5.374548e-05 0.00020854043 4.7060264e-05 2.547414e-05
-0.00019352302 -0.00028570776 -0.0002161418 -0.00041869932 0.0 0.0 0.0 0.0
0.00015310371 3.6401834e-06 1.6054018e-05 4.1144587e-05 -7.674991e-06 -2.9026813e-05 5.488927e-05 5.847359e-05
0.0 0.0 0.0 0.0 -7.703532e-06 -0.00031340204 -0.0003173981 -0.00037327755
-0.0010494791 -0.00075937534 -0.00077935454 -0.00037685173 0.0 0.0 0.0 0.0
0.00010364762 4.835981e-05 0.000103851875 4.071185e-05 0.00022962695 2.5716687e-05 0.0002544454 -6.1254905e-05
0.0 0.0 0.0 0.0 0.00018773011 8.4946114e-05 0.00012110931 0.0002805465
0.0002949332 0.0002060853 0.00034736627 0.0003108507 0.0 0.0 0.0 0.0
9.343634e-05 0.00024720593 0.0003472169 5.7939586e-05 0.00014001547 0.0004924308 -0.0002924728 -3.7468566e-05
0.0 0.0 0.0 0.0 -8.658627e-05 -0.00010373105 -5.3552918e-05 -0.00011565874
-0.0004567584 -7.274721e-05 -0.00046611187 -6.222538e-05 0.0 0.0 0.0 0.0
3.0215579e-05 -7.8311234e-07 1.588227e-05 -8.75411e-06 7.960492e-06 4.4595068e-05 9.543496e-05 0.000110085944
0.0 0.0 0.0 0.0 4.307276e-05 4.307276e-05 0.00028729413 4.7029695e-05
1.19806955e-05 1.19806955e-05 6.6089175e-05 3.1765645e-05 0.0 0.0 0.0 0.0
-6.5321217e-07 -1.5559093e-05 -3.5146884e-05 0.000110204426 0.00010131561 2.6786418e-05 -7.115259e-05 -0.00019774013
0.0 0.0 0.0 0.0 0.0 0.0 0.0 0.0
0.0 0.0 0.0 0.0 0.0 0.0 0.0 0.0
