A2C_Grid_World/storage/DynamicObstacles/status.pt (torch, 243139 bytes, 39 tensors)

image_conv.0.weight f4 [16, 3, 2, 2]
0.08140519 -0.12081241 -0.061090384 0.2577265 -0.27570632 0.19836922 -0.1224668 0.13565458
0.040130746 -0.035346583 0.080067195 0.014240859 0.07913176 -0.17048045 -0.08293172 -0.11575672
-0.0012340248 -0.019158054 0.2007325 0.064727046 -0.10750442 -0.17434862 -0.04838647 -0.12451733
-0.13606854 -0.00067850616 0.10921324 0.1641898 -0.33015206 0.1379138 0.025540665 0.23282287
0.19054285 -0.26302278 -0.27447474 -0.13923728 0.36930922 -0.13979214 -0.0126615185 -0.17038663
0.3078954 -0.15235044 0.109350055 -0.04212942 -0.15207909 0.1483833 -0.15323457 0.084900714
-0.1307964 -0.035311207 -0.30826005 -0.13090223 0.108047344 -0.06590352 0.25680348 0.24713053
-0.013516814 -0.19268577 0.17579223 0.089592375 -0.2713683 0.12458559 0.037537318 0.32590598
-0.2468315 -0.07763599 -0.13070597 0.0530257 -0.21908084 -0.20485033 0.15704058 -0.06769199
0.19984831 -0.061309963 0.054939605 0.0015875855 0.10659893 0.11058935 -0.2937363 0.106727466
-0.20297419 -0.21780798 0.0175556 -0.049192313 0.1882205 -0.14557494 -0.28122053 0.22347519
-0.014888386 0.25737178 0.055373985 -0.2650081 0.05799434 0.06933878 -0.19328493 -0.13696834
0.0904329 -0.05877942 -0.16388564 -0.14849368 0.19700411 -0.15809774 0.0945514 0.052962814
-0.18660167 -0.24549785 0.277096 0.015073682 0.098584086 0.010455549 -0.009066636 0.22591959
0.18177134 -0.2163954 -0.064332165 0.2073498 0.2091264 0.1793361 -0.20891964 -0.20787618
-0.15116806 0.0095695015 0.3752054 -0.20273413 0.18492167 -0.15864806 -0.17610435 -0.16941732
0.16632621 0.26799875 -0.17927845 0.06264574 0.2814969 0.28885132 0.14146589 0.1270438
0.16356297 0.059701957 -0.23885433 -0.3148857 -0.1322769 -0.033615034 -0.17694406 0.10561285
0.061248675 -0.11546803 0.16319166 0.0830181 0.13139726 0.21235043 -0.11581422 0.3048959
-0.03337308 -0.009917722 -0.2724747 -0.185796 -0.15583844 -0.1225707 0.31221178 -0.12662755
-0.21964292 0.10517969 0.078438014 0.124350086 -0.14938134 0.062589094 -0.10509236 -0.064858
-0.2519541 -0.17857881 -0.094192885 0.17997445 -0.014164295 0.028915169 0.18695559 0.29661748
0.19689004 0.009192439 -0.19970298 0.2256024 -0.07819115 -0.029343313 -0.25469732 -0.063025646
-0.18619195 0.25926062 -0.24956572 -0.22501728 -0.009802336 -0.15609111 0.10329133 -0.11111845
00000000: c4b7 a63d 7f6c f7bd e939 7abd baf4 833e
00000010: 6129 8dbe 4d21 4b3e e0cf fabd 09e9 0a3e
00000020: 2360 243d 94c7 10bd 45fa a33d 7e52 693c
00000030: d50f a23d 6d92 2ebe 1bd8 a9bd dc11 edbd
00000040: 00bf a1ba 5af1 9cbc d28c 4d3e 9d8f 843d
00000050: 472b dcbd 7288 32be e430 46bd f102 ffbd
00000060: 8d55 0bbe c7dd 31ba 31ab df3d 5f21 283e
00000070: b109 a9be 4639 0d3e a83a d13c 1e69 6e3e
00000080: aa1d 433e ecaa 86be f487 8cbe 3894 0ebe
00000090: 1916 bd3e ac25 0fbe 4272 4fbc d579 2ebe
000000a0: 77a4 9d3e c101 1cbe ecf2 df3d e68f 2cbd
000000b0: 9fba 1bbe cbf1 173e 86e9 1cbe 6de0 ad3d
000000c0: 7eef 05be 7ca2 10bd 43d4 9dbe 3c0b 06be
000000d0: ed47 dd3d 6df8 86bd bf7b 833e c90f 7d3e
000000e0: a175 5dbc 6b4f 45be e102 343e 357c b73d
000000f0: c9f0 8abe bb26 ff3d bbc0 193d 26dd a63e
00000100: 66c1 7cbe 9eff 9ebd c9d7 05be 7a31 593d
00000110: ba56 60be 49c4 51be 3fcf 203e 19a2 8abd
00000120: 09a5 4c3e 2820 7bbd 5a08 613d 8816 d03a
00000130: 8a50 da3d ab7c e23d 9b64 96be ee93 da3d
00000140: 77d8 4fbe 0e09 5fbe c3d0 8f3c e17d 49bd
00000150: e0bc 403e 9911 15be 23fc 8fbe aed6 643e
00000160: 6bee 73bc 3cc6 833e d5cf 623d 24af 87be
00000170: 798b 6d3d 7e01 8e3d 7cec 45be 6e41 0cbe
00000180: e234 b93d b0c2 70bd a3d1 27be ba0e 18be
00000190: 72bb 493e 60e4 21be 2aa4 c13d 89ef 583d
000001a0: 8214 3fbe ca63 7bbe 87df 8d3e 9bf7 763c
000001b0: 74e6 c93d c04d 2b3c 3a8c 14bc 7757 673e
000001c0: 4422 3a3e c196 5dbe 95c0 83bd 8253 543e
000001d0: 3b25 563e e2a3 373e 08ef 55be 7edd 54be
000001e0: cdcb 1abe 66c9 1c3c ec1a c03e 8999 4fbe
000001f0: 1b5c 3d3e a374 22be b354 34be bc7b 2dbe
00000200: 6b51 2a3e 2237 893e c594 37be 694c 803d
00000210: 5d20 903e 52e4 933e 6fdc 103e c517 023e
00000220: 0d7d 273e 0a8a 743d 3b96 74be b338 a1be
00000230: 9873 07be ebaf 09bd d330 35be 8d4b d83d
00000240: e4df 7a3d 817a ecbd b71b 273e 6505 aa3d
00000250: 018d 063e 6472 593e 0130 edbd 511b 9c3e
00000260: 36b2 08bd f17d 22bc ce81 8bbe 4e41 3ebe
00000270: 1d94 1fbe 5906 fbbd 39da 9f3e a7aa 01be
00000280: 13ea 60be 7368 d73d 1ca4 a03d 42ab fe3d
00000290: 6cf7 18be b62e 803d aa3a d7bd 45d4 84bd
000002a0: 2100 81be 5ddd 36be 33e8 c0bd 394b 383e
000002b0: 5c11 68bc 81df ec3c 4971 3f3e 3fde 973e
000002c0: 8b9d 493e e29b 163c f07e 4cbe 5104 673e
000002d0: af22 a0bd 6361 f0bc b067 82be 9713 81bd
000002e0: 1aa9 3ebe cfbd 843e 288e 7fbe ee6a 66be
000002f0: fa99 20bc 59d6 1fbe 688a d33d 1292 e3bd

image_conv.0.bias f4 [16]
-0.19325483 -0.08190074 0.17709184 -0.284923 0.104832895 0.10712954 0.2584405 -0.21695937
0.0039596185 -0.270206 0.24103926 -0.10303473 0.10257107 0.038223874 -0.0063575115 -0.015215079
00000000: 98e4 45be 93bb a7bd 9057 353e 6de1 91be
00000010: a1b2 d63d bb66 db3d 5052 843e 992a 5ebe
00000020: b0bf 813b 7158 8abe ffd2 763e df03 d3bd
00000030: c810 d23d a390 1c3d ac52 d0bb ab48 79bc

image_conv.3.weight f4 [32, 16, 2, 2]
-0.014704769 0.18025953 0.049782783 0.029723678 -0.12620269 0.11466634 0.09286667 0.09193548
0.037934173 -0.106290214 -0.075447746 0.06673816 -0.095262244 0.111362 -0.062432602 -0.09758334
0.06370755 -0.08218483 -0.04237464 0.058404543 0.048458178 0.112562895 -0.06164356 -0.16573343
0.11148972 -0.05282002 -0.07110937 -0.02538799 -0.0674676 0.1390541 0.17824122 -0.12467409
-0.11555416 -0.024372814 0.078796834 -0.022867696 -0.093806654 0.009955857 -0.12097163 -0.12231582
-0.09024035 0.14172575 0.009382955 -0.03449168 -0.011023616 0.03220589 -0.011929086 -0.14153507
0.06058276 0.10688455 -0.021970466 -0.037636448 0.18803713 0.14108655 -0.10438712 0.14157532
0.009320435 0.0023337118 0.07506069 -0.11304236 0.10954047 -0.08631789 0.029396556 0.0321269
0.030383654 0.15821506 -0.13003547 0.004130306 -0.12737612 -0.06890623 -0.088909276 0.0037742492
-0.06394201 0.06281341 0.05915928 0.028653238 -0.009169472 -0.14701948 -0.12422697 0.12388709
0.04776564 0.05719281 -0.032677718 -0.10446327 0.039105285 0.09707076 -0.03625658 -0.027019998
-0.066242866 -0.024854276 -0.104827054 -0.0701288 0.049300455 -0.054210763 -0.0060673286 -0.008403066
0.012472241 -0.10364471 -0.14075953 0.09161536 0.029800585 0.12113977 -0.07333496 -0.052333325
-0.18459852 -0.10007141 0.08663663 -0.08917789 -0.047565073 0.021944229 0.041310698 0.05305748
-0.021978043 -0.023581635 -0.076718375 -0.07600713 -0.027910996 -0.08794089 -0.0732135 0.031515483
-0.1357922 0.027441202 0.0004290506 0.055586845 0.100643486 -0.07952499 -0.0042815926 -0.031173652
-0.11340066 -0.05496242 0.043375812 -0.07496694 -0.10742548 -0.16801986 -0.1006421 0.12109507
-0.06551942 -0.06494138 -0.046817094 -0.0868285 -0.13640155 -0.17491372 0.06248673 -0.009533564
-0.10280676 -0.06116262 0.075100906 0.08952106 0.0804393 0.009886682 0.052843936 -0.05577626
-0.10680878 -0.16529845 0.04048375 -0.046875905 0.051797517 -0.028800966 -0.15793023 -0.04751283
0.006704595 -0.14120375 -0.13314086 0.021562163 -0.036612794 -0.08253954 0.04115663 -0.006005969
-0.038123928 0.07638343 0.063360006 -0.054892886 -0.058799926 -0.18147221 0.10000586 -0.039511863
-0.13264367 0.033497307 0.014128721 -0.027927298 0.02146786 -0.080402955 0.030257242 0.07180294
-0.04434239 -0.066397525 0.12290739 -0.014969644 0.09288871 0.0246126 0.10619602 0.066329874
-0.065253474 0.02124815 -0.014740212 -0.02052094 -0.021370297 -0.1450728 -0.050183583 -0.09211274
0.06436429 -0.088323325 -0.03978341 0.071953945 0.097460784 -0.08140679 0.05799602 0.038585417
-0.1112271 0.06304205 -0.06811221 -0.047733165 -0.103523836 0.057892438 0.009311895 0.11994404
0.04646322 0.09320528 -0.08353341 -0.11920087 0.057530362 0.045491986 -0.07742457 -0.14555469
0.026033256 0.032018926 0.055255014 -0.11266624 0.060431518 -0.0032292467 0.079049684 0.05322971
-0.11304292 0.06820175 -0.10187272 0.054850142 0.0832064 0.06721913 -0.12074028 0.09889002
-0.058378484 -0.12010624 0.019926775 0.037162926 0.09379578 -0.0845504 0.078560084 0.09805568
-0.09292015 -0.16712786 0.060828645 -0.048910715 0.06327604 -0.101111986 0.09715825 0.043351587
00000000: 45ec 70bc f495 383e 08e9 4b3d 127f f33c
00000010: 473b 01be 30d6 ea3d e130 be3d ab48 bc3d
00000020: dd60 1b3d afae d9bd 5984 9abd 04ae 883d
00000030: da18 c3bd c311 e43d 54b9 7fbd c6d9 c7bd
00000040: 1b79 823d 8550 a8bd 0891 2dbd 9a39 6f3d
00000050: 157c 463d 6087 e63d f57d 7cbd 06b6 29be
00000060: b954 e43d ce59 58bd caa1 91bd 79fa cfbc
00000070: 742c 8abd 3364 0e3e de84 363e 2155 ffbd
00000080: a9a7 ecbd 7fa9 c7bc 3c60 a13d 0955 bbbc
00000090: b41d c0bd e41d 233c f9bf f7bd b780 fabd
000000a0: efcf b8bd 8e20 113e f7ba 193c 2647 0dbd
000000b0: 669c 34bc 53ea 033d 3772 43bc 92ee 10be
000000c0: a125 783d 49e6 da3d 68fb b3bc ad28 1abd
000000d0: ce8c 403e fe78 103e eac8 d5bd 1ff9 103e
000000e0: bdb4 183c 30f1 183b 6bb9 993d c182 e7bd
000000f0: c156 e03d 6fc7 b0bd 0cd1 f03c 7f97 033d
00000100: 24e7 f83c 2103 223e 0528 05be 8557 873b
00000110: e36e 02be b61e 8dbd 1116 b6bd 6559 773b
00000120: 07f4 82bd 51a4 803d 0051 723d 32ba ea3c
00000130: 8e3b 16bc 468c 16be b66a febd 84b8 fd3d
00000140: e7a5 433d 0243 6a3d 12d9 05bd d7f0 d5bd
00000150: dd2c 203d 09cd c63d c881 14bd 0b59 ddbc
00000160: 57aa 87bd 329b cbbc 91af d6bd b09f 8fbd
00000170: 46ef 493d 1b0c 5ebd 71d0 c6bb 03ad 09bc
00000180: 5f58 4c3c ad43 d4bd 4423 10be d5a0 bb3d
00000190: 5b20 f43c 2118 f83d a430 96bd 785b 56bd
000001a0: 6507 3dbe 3df2 ccbd 8c6e b13d e6a2 b6bd
000001b0: 98d3 42bd 62c4 b33c 6835 293d cd52 593d
000001c0: 4c0b b4bc 462e c1bc 861e 9dbd a0a9 9bbd
000001d0: 9aa5 e4bc 5a1a b4bd f6f0 95bd 6116 013d
000001e0: 1c0d 0bbe 5fcc e03c 32f2 e039 08af 633d
000001f0: 2c1e ce3d ffdd a2bd 9a4c 8cbb e35f ffbc
00000200: 9b3e e8bd 4620 61bd d6aa 313d 4488 99bd
00000210: e401 dcbd 660d 2cbe 721d cebd b100 f83d
00000220: 0c2f 86bd fcff 84bd 48c3 3fbd 24d3 b1bd
00000230: d9ac 0bbe 951c 33be 16f2 7f3d aa32 1cbc
00000240: 5a8c d2bd a885 7abd 81ce 993d d156 b73d
00000250: 5cbd a43d c0fb 213c e272 583d a675 64bd
00000260: 90be dabd ff43 29be 4ad2 253d f300 40bd
00000270: a229 543d 01f0 ebbc 76b8 21be d09c 42bd
00000280: 38b2 db3b b797 10be 1456 08be 22a3 b03c
00000290: 4cf7 15bd 7e0a a9bd db93 283d b8cd c4bb
000002a0: d627 1cbd ea6e 9c3d e4c2 813d 5dd7 60bd
000002b0: 31d8 70bd dad3 39be dfcf cc3d 31d7 21bd
000002c0: bed3 07be 7934 093d 277c 673c cac7 e4bc
000002d0: 5edd af3c 4eaa a4bd 09de f73c 6b0d 933d
000002e0: 5ea0 35bd 6dfb 87bd dfb6 fb3d 3d43 75bc
000002f0: 703c be3d 5da0 c93c 4d7d d93d f5d7 873d
00000300: 9da3 85bd 9a10 ae3c ee80 71bc 881b a8bc
00000310: c310 afbc f78d 14be 4d8d 4dbd 9ba5 bcbd
00000320: 6dd1 833d dce2 b4bd eef3 22bd 975c 933d
00000330: 8599 c73d 9ab8 a6bd 3c8d 6d3d be0b 1e3d
00000340: 09cb e3bd 311c 813d 6a7e 8bbd da83 43bd
00000350: 4e04 d4bd 9f20 6d3d eb90 183c 39a5 f53d
00000360: 3850 3e3d 69e2 be3d 9113 abbd 961f f4bd
00000370: f5a4 6b3d ce55 3a3d c690 9ebd 4a0c 15be
00000380: b243 d53c 4726 033d 1553 623d 8fbd e6bd
00000390: 0a87 773d c5a1 53bb cde4 a13d 6507 5a3d
000003a0: 0c83 e7bd 5cad 8b3d a5a2 d0bd 8baa 603d
000003b0: 1e68 aa3d 2faa 893d ae46 f7bd da86 ca3d
000003c0: 471e 6fbd 43fa f5bd 7a3d a33c 2738 183d
000003d0: 0018 c03d c328 adbd 1ce4 a03d 6bd1 c83d
000003e0: eb4c bebd 9123 2bbe 7527 793d 9a56 48bd
000003f0: de96 813d cd13 cfbd e8fa c63d 6f91 313d

image_conv.3.bias f4 [32]
-0.08793557 -0.08073049 -0.0034772954 -0.086597174 -0.062794566 -0.047487207 -0.1405119 0.040183153
-0.011022397 0.091170646 -0.0022401672 -0.016049685 -0.105158016 -0.11268502 -0.006257555 -0.13260211
0.038873084 0.05320987 0.044852696 -0.06889492 0.019945847 0.114905424 -0.06985345 -0.1010175
-0.0575634 -0.026666969 -0.06571365 -0.12917094 -0.10497969 -0.0051014205 -0.109120436 0.029557524
00000000: 9017 b4bd 0756 a5bd 56e3 63bb dc59 b1bd
00000010: 709a 80bd f281 42bd 5ae2 0fbe 1797 243d
00000020: 4997 34bc adb7 ba3d c5cf 12bb a17a 83bc
00000030: 165d d7bd 67c7 e6bd 2d0c cdbb d9c8 07be
00000040: 6239 1f3d 98f2 593d 76b7 373d c818 8dbd
00000050: 7965 a33c 8953 eb3d 530f 8fbd 43e2 cebd
00000060: 9ac7 6bbd b074 dabc e194 86bd 6345 04be
00000070: 97ff d6bd d129 a7bb 897a dfbd 9f22 f23c

image_conv.5.weight f4 [64, 32, 2, 2]
0.09178229 -0.079905204 -0.02630391 -0.035829954 -0.03513451 0.06080373 -0.03773779 0.052366607
-0.009003888 0.05675393 0.0011018829 -0.05483697 0.05173867 -0.020558205 0.054615602 -0.0986298
-0.003486587 0.05057807 0.16502506 0.040326606 -0.04258809 -0.06154381 -0.061398733 0.075327106
-0.07662441 -0.04070659 0.030664211 0.04353453 -0.17634445 -0.01573738 -0.019626897 0.08474873
-0.010709019 0.019297866 -0.017367054 0.08288825 -0.0023313991 -0.0415055 0.022647465 -0.0437465
0.019154541 0.059103914 -0.084821835 -0.06221595 -0.01288392 0.0112952655 -0.039610136 0.0704459
0.054226656 -0.030462379 0.05053716 -0.022833876 -0.06565985 0.014487258 -0.00806944 -0.035892878
0.053642314 -0.06239068 -0.0050819935 0.045249313 0.04556798 -0.027399004 0.037824456 -0.05392729
-0.017245458 0.070745125 0.055671647 -0.01622651 0.01957977 -0.0057701115 -0.039642762 -0.02358747
-0.05530726 0.027635362 0.043645553 -0.02266801 -0.017508397 -0.056927476 0.022044992 0.024699345
0.047370814 -0.05979149 0.01847963 -0.01675744 0.079715654 0.012132291 0.022214632 0.017004099
-0.00410664 0.030872101 0.17291981 -0.04452081 -0.06175619 -0.11967782 -0.040961385 -0.0038283444
0.073631786 -0.090128146 0.06810036 -0.046446145 0.020020373 0.028788144 0.053632688 -0.14208117
-0.090136595 -0.0769329 0.053649604 -0.014130569 0.002939679 -0.048639357 -0.042720918 -0.055270717
-0.024632236 0.037338704 0.05280731 0.06110032 0.04911881 -0.073451705 -0.090894565 0.011249137
0.04588781 -0.09338158 0.072304 -0.004099334 -0.034138042 0.07111344 0.055265605 0.025378028
-0.03503245 -0.00455047 -0.07151752 0.04469167 0.03593883 -0.02359611 -0.08877736 0.04458204
-0.0723082 -0.0464147 0.04199369 -0.04392769 -0.00868934 0.057415973 -0.024800962 -0.03176957
0.061032243 -0.0052990257 -0.0037065495 -0.044455897 -0.07625456 0.013837063 -0.052250847 -0.045713115
-0.09081814 0.061520193 -0.069905415 -0.010297191 -0.009463544 0.04579248 0.035140157 -0.07713771
0.033471342 -0.050766062 -0.005674436 -0.037667114 -0.09950111 0.0068040653 -0.06468045 0.071753144
0.00840906 -0.036281694 -0.07892693 -0.09764036 -0.06112477 -0.06362725 -0.023058955 0.0048727337
0.07665121 0.011881112 -0.017954683 -0.03940724 -0.012433457 0.02471595 -0.08522543 -0.08663713
0.016020084 -0.03971397 -0.06784559 -0.091378435 -0.08831721 -0.078697294 -0.06336492 -0.09586716
-0.041538615 0.043835282 -0.05741143 0.03989264 -0.08961085 0.0024889736 -0.022727473 -0.07740003
-0.018612264 0.0569197 -0.08474189 0.035773844 -0.036482878 -0.0532187 0.011434662 0.06909644
0.048640065 0.03185908 -0.116521105 -0.053191062 -0.0018713165 -0.054193646 0.032170784 -0.027884072
-0.08935387 -0.07581068 -0.05700969 0.0109515125 -0.082574494 -0.05677156 -0.010042987 0.038113195
-0.074354984 0.05271569 -0.056722775 -0.07920541 0.0016069938 -0.07144402 0.019390913 0.024640633
-0.072938815 -0.052252963 -0.06166175 -0.046202738 -0.02640061 -0.007851866 -0.09774307 -0.092508174
-0.05652539 0.014922713 0.009063206 -0.044494618 -0.040839273 -0.023878437 0.04392535 -0.08514346
-0.04762495 -0.02526327 -0.021675685 -0.061069876 0.03561436 -0.060454227 -0.004254311 -0.050282463
00000000: 5af8 bb3d 57a5 a3bd 4c7b d7bc 6ec2 12bd
00000010: 34e9 0fbd 550d 793d f192 1abd 5e7e 563d
00000020: 0b85 13bc cf76 683d 0e6d 903a bb9c 60bd
00000030: edeb 533d ae69 a8bc 9cb4 5f3d 6cfe c9bd
00000040: 397f 64bb f32a 4f3d 54fc 283e 832d 253d
00000050: d970 2ebd 5d15 7cbd 3d7d 7bbd 1945 9a3d
00000060: 42ed 9cbd f4bb 26bd 8333 fb3c 4351 323d
00000070: a493 34be aeeb 80bc 96c8 a0bc be90 ad3d
00000080: e274 2fbc 8f16 9e3c 5a45 8ebc 51c1 a93d
00000090: 63ca 18bb ac01 2abd 2d87 b93c 882f 33bd
000000a0: fce9 9c3c f216 723d 12b7 adbd 27d6 7ebd
000000b0: 1417 53bc c70f 393c 3d3e 22bd f145 903d
000000c0: c51c 5e3d 3d8c f9bc 0e00 4f3d 1c0e bbbc
000000d0: ac78 86bd f75b 6d3c af35 04bc 6904 13bd
000000e0: 0bb8 5b3d 5f8d 7fbd da86 a6bb 5857 393d
000000f0: 7da5 3a3d e073 e0bc d1ed 1a3d dde2 5cbd
00000100: 5946 8dbc d2e2 903d f407 643d 75ed 84bc
00000110: c165 a03c 3413 bdbb 7360 22bd 833a c1bc
00000120: de89 62bd 8e63 e23c aec5 323d 43b2 b9bc
00000130: c56d 8fbc c92c 69bd b397 b43c 4856 ca3c
00000140: e607 423d ece7 74bd 9862 973c e646 89bc
00000150: f641 a33d 84c6 463c 76fb b53c 2e4c 8b3c
00000160: fe90 86bb 7de7 fc3c e411 313e 745b 36bd
00000170: 0ff4 7cbd a519 f5bd 20c7 27bd f6e4 7abb
00000180: 43cc 963d 1b95 b8bd 3478 8b3d 503e 3ebd
00000190: c401 a43c 1dd5 eb3c f3ad 5b3d ba7d 11be
000001a0: 8999 b8bd ff8e 9dbd b0bf 5b3d e783 67bc
000001b0: a1a7 403b 103a 47bd 21fc 2ebd 8c63 62bd
000001c0: 8bc9 c9bc 78f0 183d 7a4c 583d 5444 7a3d
000001d0: ce30 493d d96d 96bd ee26 babd 4d4e 383c
000001e0: dbf4 3b3d d83e bfbd 1f14 943d b553 86bb
000001f0: 55d4 0bbd eca3 913d 305e 623d 95e5 cf3c
00000200: 307e 0fbd 1c1c 95bb c777 92bd 9d0e 373d
00000210: 9834 133d a14c c1bc e8d0 b5bd a89b 363d
00000220: 5216 94bd 571d 3ebd 9301 2c3d 85ed 33bd
00000230: bc5d 0ebc 032d 6b3d 632b cbbc cf20 02bd
00000240: f2fc 793d 73a3 adbb 95e9 72bb 6317 36bd
00000250: 5a2b 9cbd d9b4 623c fc04 56bd ad3d 3bbd
00000260: dcfe b9bd 99fc 7b3d 922a 8fbd 8db5 28bc
00000270: fb0c 1bbc e590 3b3d 20ef 0f3d 60fa 9dbd
00000280: 3f19 093d 13f0 4fbd 9ff0 b9bb d548 1abd
00000290: 3dc7 cbbd a3f4 de3b 2f77 84bd 50f3 923d
000002a0: 27c6 093c 1d9c 14bd 71a4 a1bd abf7 c7bd
000002b0: f85d 7abd 014f 82bd 22e6 bcbc 74ab 9f3b
000002c0: 4ffb 9c3d ffa8 423c b315 93bc 7c69 21bd
000002d0: b3b5 4bbc 1b79 ca3c ac8a aebd cf6e b1bd
000002e0: 8d3c 833c 1eab 22bd a1f2 8abd 9e24 bbbd
000002f0: a7df b4bd 0c2c a1bd 78c5 81bd 0056 c4bd
00000300: 6524 2abd a08c 333d 3f28 6bbd 7766 233d
00000310: e585 b7bd 0c1e 233b f72e babc e883 9ebd
00000320: bf78 98bc a224 693d 288d adbd 9887 123d
00000330: 126f 15bd dafb 59bd 7358 3b3c 6f82 8d3d
00000340: ce3a 473d ab7e 023d 9ea2 eebd dfde 59bd
00000350: f646 f5ba 28fa 5dbd 83c5 033d 236d e4bc
00000360: 29ff b6bd a142 9bbd fe82 69bd f96d 333c
00000370: d11c a9bd 4c89 68bd 578b 24bc 951c 1c3d
00000380: 6d47 98bd 68ec 573d 2456 68bd 7236 a2bd
00000390: c4a1 d23a 3e51 92bd b1d9 9e3c 27db c93c
000003a0: f260 95bd 3407 56bd 0891 7cbd 153f 3dbd
000003b0: 1846 d8bc 1da5 00bc 852d c8bd ed74 bdbd
000003c0: 2b87 67bd 657e 743c d77d 143c fd3f 36bd
000003d0: 1547 27bd b69c c3bc 11eb 333d b25f aebd
000003e0: 6112 43bd ebf4 cebc 3591 b1bc 6824 7abd
000003f0: 5de0 113d da9e 77bd bf67 8bbb fcf4 4dbd

image_conv.5.bias f4 [64]
0.033855297 -0.029990336 -0.03728658 0.009139305 -0.022289108 0.0040938915 0.008376045 -0.02916477
0.068322286 -0.053082567 0.008184666 0.03891823 -0.071408935 -0.060316533 -0.007317822 -0.04489747
-0.09127423 -0.0037399079 0.051705413 0.018681284 -0.004517209 0.005462915 -0.12962772 -0.032668866
-0.013094231 0.07607442 0.051647734 0.040992577 0.047646016 -0.11620868 0.059429035 -0.004971603
-0.043362472 -0.11176028 0.06872948 -0.050371338 -0.13055003 -0.08262309 -0.00849908 0.030086735
-0.015505502 -0.03770031 -0.024605494 0.029049069 -0.03305947 0.09626255 0.04032252 -0.053503603
0.028351968 -0.041237783 -0.10188391 -0.08873149 0.061988164 0.038656313 -0.095185794 0.047043316
-0.059911378 0.042293858 -0.028906515 -0.056533575 -0.06811398 -0.07542731 0.13012393 -0.07620807
00000000: daab 0a3d 4bae f5bc d0b9 18bd 06bd 153c
00000010: a697 b6bc 0d26 863b ae3b 093c f5ea eebc
00000020: 8eec 8b3d 1b6d 59bd fa18 063c b968 1f3d
00000030: d93e 92bd 780e 77bd 57ca efbb 69e6 37bd
00000040: fced babd 3e19 75bb 0ec9 533d 7e09 993c
00000050: 1805 94bb 4102 b33b 21bd 04be cacf 05bd
00000060: 2f89 56bc e8cc 9b3d 938c 533d d5e7 273d
00000070: 7828 433d d1fe edbd dc6b 733d d4e8 a2bb
00000080: d99c 31bd 93e2 e4bd 0bc2 8c3d 2d52 4ebd
00000090: e8ae 05be 4b36 a9bd ba3f 0bbc 7578 f63c
000000a0: ca0a 7ebc a46b 1abd 7691 c9bc 50f8 ed3c
000000b0: 5e69 07bd 4d25 c53d 3a29 253d 9826 5bbd
000000c0: 6342 e83c f3e8 28bd 83a8 d0bd dbb8 b5bd
000000d0: 4de7 7d3d 1556 1e3d c5f0 c2bd 7eb0 403d
000000e0: a265 75bd 533c 2d3d 5bcd ecbc c08f 67bd
000000f0: 587f 8bbd a279 9abd 353f 053e fa12 9cbd

actor.0.weight f4 [64, 64]
-0.19966188 0.0009512417 0.066965826 0.1566357 -0.14972343 0.16179687 -0.0039214566 0.013714176
-0.10350755 -0.09725627 0.14447634 0.015654627 -0.12779716 0.36220822 0.1185629 -0.0041324585
-0.08559837 0.16919158 0.15663497 0.055500176 -0.16885121 -0.08113147 -0.07985003 -0.10217403
0.12984769 -0.064111605 -0.044292714 -0.1904467 0.08217702 -0.0027840165 -0.11352089 0.11651812
-0.06814825 0.2269953 -0.2116134 -0.08676119 0.13138969 0.029186763 0.059743606 0.11385284
-0.2868172 -0.061861746 0.02614087 0.15520656 -0.1534273 -0.0828164 -0.019793648 0.08574046
-0.3224741 0.2131036 -0.07547377 0.1466363 -0.00754898 -0.19788943 0.10728704 0.18560734
-0.1570736 -0.09559007 -0.03278026 0.1921405 0.032825816 0.19001281 -0.17096955 0.25302485
0.013595121 -0.057926618 0.1491144 -0.08238929 -0.13816756 0.05650813 0.08885206 0.008361063
0.2674781 -0.027928505 0.16227686 -0.0052866754 -0.019699791 -0.08515784 0.29144424 -0.24044637
0.010397985 -0.044050988 0.14334323 0.265757 0.07009433 0.01704338 0.19914936 0.020018985
0.1464625 -0.11180467 -0.16004616 0.038438566 0.22622664 -0.079978146 0.22524332 0.08003329
0.09889548 0.03168074 -0.15859284 -0.011183292 -0.21903704 -0.04944169 -0.3054652 -0.1958997
-0.15020622 0.0132734515 0.0056199376 -0.10700809 0.20178613 0.037349883 0.025395533 -0.042348303
-0.17760341 0.021067027 0.1731856 0.28257185 0.21953231 -0.14584684 -0.17726295 0.10459427
0.19009618 -0.06706784 -0.008920774 0.14534628 -0.20201603 0.15329883 0.15781668 0.06667892
0.16154152 0.24663055 0.20603743 0.054851934 0.18093778 -0.21281478 -0.065147325 -0.21146023
-0.21433099 0.2633829 0.10890566 -0.11448044 -0.072847374 -0.18171132 0.00064722274 -0.18483858
0.28924423 0.060065236 0.038113542 0.006674646 -0.18558598 0.09966163 -0.0063227653 0.097202756
-0.009680922 0.065348186 -0.15540901 -0.121048205 0.11744351 -0.01907133 0.09783214 -0.18527332
-0.015751654 -0.20229469 0.0500643 0.22725807 -0.12857352 0.010124752 -0.03088447 0.19134466
0.05789284 0.17042464 -0.13373525 0.07303449 -0.22332254 0.06125198 -0.02796572 0.19911523
0.20920728 -0.28910032 -0.08628048 -0.18131426 0.024406595 0.102005385 0.016406283 0.06395879
0.14215283 0.007700287 0.06569393 -0.2635921 0.016131526 0.076726526 -0.15425564 -0.123444244
-0.05797658 0.005743635 0.048246805 0.11229961 -0.15933318 0.33875284 0.28449568 -0.05535047
-0.0049417242 -0.14397727 0.1576443 0.20940672 -0.24778531 -0.10513339 -0.22034854 0.22161679
0.06694831 0.26595926 0.0023261635 0.12178599 0.11246375 0.096990064 -0.047852214 -0.118393034
-0.053292997 -0.06271638 -0.09104021 -0.21539147 0.19754753 0.09374508 -0.020453054 -0.038238913
0.18560874 -0.013977411 0.27343085 -0.10650597 0.14405514 0.13127494 0.20946251 -0.063283026
0.026237985 -0.0016158798 0.08666548 0.17232057 -0.069684796 0.12699327 0.051193513 -0.028050339
0.22263224 0.11069427 -0.09350365 0.07792042 -0.04239842 0.015688866 0.21221894 0.023045594
0.13111043 0.0606146 -0.24624932 0.048416443 0.07032038 -0.33190632 -0.177094 0.08508258
00000000: 2a74 4cbe c05c 793a 6125 893d 1c65 203e
00000010: 1951 19be 14ae 253e 907f 80bb 6cb1 603c
00000020: c4fb d3bd 4c2e c7bd 9bf1 133e 223e 803c
00000030: 42dd 02be 5b73 b93e 1bd1 f23d 9369 87bb
00000040: 334e afbd 8f40 2d3e eb64 203e 2754 633d
00000050: 55e7 2cbe 4228 a6bd 6a88 a3bd 9e40 d1bd
00000060: cbf6 043e f24c 83bd 476c 35bd 7604 43be
00000070: 6d4c a83d 0c74 36bb a47d e8bd 0da1 ee3d
00000080: 4f91 8bbd 7571 683e 2fb1 58be daaf b1bd
00000090: 058b 063e 1419 ef3c b6b5 743d ae2b e93d
000000a0: b4d9 92be be62 7dbd 6125 d63c 78ee 1e3e
000000b0: 0c1c 1dbe a59b a9bd 4a26 a2bc b298 af3d
000000c0: 531b a5be d537 5a3e fe91 9abd d427 163e
000000d0: 6f5d f7bb 87a3 4abe 4fb9 db3d da0f 3e3e
000000e0: e7d7 20be bac4 c3bd 9844 06bd 7bc0 443e
000000f0: 5d74 063d b892 423e a412 2fbe 798c 813e
00000100: 12be 5e3c 7644 6dbd 72b1 183e b7bb a8bd
00000110: cc7b 0dbe 1275 673d 12f8 b53d d7fc 083c
00000120: e4f2 883e 52ca e4bc e82b 263e d93b adbb
00000130: 7561 a1bc 3c67 aebd 2e38 953e 9337 76be
00000140: 4f5c 2a3c cf6e 34bd 91c8 123e 4d11 883e
00000150: 9e8d 8f3d 8f9e 8b3c cfed 4b3e dbfe a33c
00000160: 44fa 153e d9f9 e4bd 24e3 23be c271 1d3d
00000170: f5a7 673e 95cb a3bd 2fa6 663e 7ee8 a33d
00000180: b789 ca3d aac3 013d 2966 22be 203a 37bc
00000190: 3f4b 60be 5f83 4abd ef65 9cbe ee99 48be
000001a0: a9cf 19be e478 593c 7427 b83b 0f27 dbbd
000001b0: 06a1 4e3e 31fc 183d 4b0a d03c 6a75 2dbd
000001c0: abdd 35be c294 ac3c 9157 313e 42ad 903e
000001d0: 14cd 603e e058 15be 6b84 35be 8535 d63d
000001e0: 93a8 423e dd5a 89bd 7028 12bc a8d5 143e
000001f0: 4add 4ebe 5efa 1c3e b29a 213e f58e 883d
00000200: 246b 253e b88c 7c3e 7afb 523e 6cac 603d
00000210: c147 393e 1eec 59be f66b 85bd 0889 58be
00000220: 9579 5bbe 20da 863e ee09 df3d b974 eabd
00000230: 0131 95bd 8812 3abe 62aa 293a 5346 3dbe
00000240: d217 943e f706 763d f21c 1c3d fdb6 da3b
00000250: 400a 3ebe 661b cc3d 332f cfbb 3d12 c73d
00000260: bb9c 1ebc 45d5 853d 8a23 1fbe 1fe8 f7bd
00000270: 3986 f03d 7a3b 9cbc 385c c83d 4ab8 3dbe
00000280: 9d09 81bc 5726 4fbe 3910 4d3d 57b6 683e
00000290: c7a8 03be 4ae2 253c 6e01 fdbc dbef 433e
000002a0: 0b21 6d3d cc83 2e3e e5f1 08be 1b93 953d
000002b0: aaae 64be 5be3 7a3d 5e18 e5bc dde4 4b3e
000002c0: 6f3a 563e f504 94be d2b3 b0bd 72aa 39be
000002d0: 57f0 c73c 33e8 d03d 7866 863c d3fc 823d
000002e0: 8390 113e b052 fc3b 8a8a 863d 8bf5 86be
000002f0: 4326 843c cc22 9d3d 31f5 1dbe 56d0 fcbd
00000300: da78 6dbd 1a35 bc3b 719e 453d 57fd e53d
00000310: 3d28 23be 0371 ad3e 6ba9 913e 2db7 62bd
00000320: 30ee a1bb c76e 13be 826d 213e b76e 563e
00000330: 6fbb 7dbe 2d50 d7bd 0ca3 61be 83ef 623e
00000340: 321c 893d d02b 883e 8c72 183b ef6a f93d
00000350: 6553 e63d baa2 c63d af00 44bd 0c78 f2bd
00000360: c249 5abd 7271 80bd 4a73 babd 958f 5cbe
00000370: e649 4a3e 6cfd bf3d 2a8d a7bc 68a0 1cbd
00000380: 3810 3e3e 8301 65bc 21ff 8b3e cd1f dabd
00000390: 3183 133e f06c 063e 577d 563e 889a 81bd
000003a0: 0bf1 d63c eecb d3ba ac7d b13d ce74 303e
000003b0: e7b6 8ebd 860a 023e 4ab0 513d d3c9 e5bc
000003c0: b5f9 633e adb3 e23d d77e bfbd be94 9f3d
000003d0: f7a9 2dbd f085 803c ec4f 593e 1dca bc3c
000003e0: d041 063e 0447 783d c828 7cbe 5250 463d
000003f0: 2204 903d a0ef a9be 2158 35be c73f ae3d

actor.0.bias f4 [64]
-0.009920191 -0.012074731 0.015893646 -0.0017523733 -0.0011761041 0.011954529 -0.011500242 -0.0049609332
-0.025000334 0.007922584 -0.012283841 -0.0059955497 -0.01368659 -0.017623432 -0.010538212 0.0032822047
0.0077616633 0.011226212 -0.015161105 -0.013279071 0.009419449 0.00047297325 0.0093537755 -0.0054382747
0.0077189184 -0.012571037 0.0019369168 -0.0065742424 -0.004231525 4.4678847e-05 0.007389474 0.009198691
-0.009231326 -0.013531241 0.001874391 -0.009882482 0.009804283 -0.009187627 0.0047768606 -0.0039248727
-0.0053835106 -0.0038952439 -0.013250707 -0.012825875 0.0073314593 0.0080393255 -0.0120749865 0.0062063956
-0.004743426 -0.00934165 -0.012916415 -0.014245897 0.011592887 0.0023062383 0.0019902054 0.0075877723
0.006463978 -0.010176053 -0.004730164 -0.014806939 0.025587672 0.0005223132 0.008700527 -9.372498e-05
00000000: 4c88 22bc 18d5 45bc 6433 823c e4af e5ba
00000010: 8127 9aba eedc 433c 836b 3cbc 538f a2bb
00000020: 80cd ccbc bacd 013c 2a42 49bc 5176 c4bb
00000030: b83d 60bc 045f 90bc 77a8 2cbc 421a 573b
00000040: 8d55 fe3b 25ee 373c 4966 78bc 7690 59bc
00000050: 0854 1a3c 65f9 f739 9440 193c 8e33 b2bb
00000060: fbee fc3b c0f6 4dbc 25e0 fd3a be6c d7bb
00000070: 9ba8 8abb 8c65 3b38 6723 f23b 1bb6 163c
00000080: fd3e 17bc 23b2 5dbc 20ae f53a 22ea 21bc
00000090: 25a2 203c b387 16bc 3687 9c3b 389c 80bb
000000a0: 2968 b0bb 5947 7fbb 7e19 59bc 9e23 52bc
000000b0: bd3c f03b 60b7 033c 2ad6 45bc 055f cb3b
000000c0: be6e 9bbb b80d 19bc 5f9f 53bc 9f67 69bc
000000d0: 18f0 3d3c 4224 173b 1b6e 023b d9a2 f83b
000000e0: c7cf d33b 76b9 26bc 7eff 9abb ce98 72bc
000000f0: 3d9d d13c d8eb 083a a88c 0e3c 378e c4b8

actor.2.weight f4 [3, 64]
0.15174983 0.25041205 -0.16551472 -0.07959194 0.10657152 -0.20467977 0.24113815 -0.038324464
0.01885359 -0.08456866 0.13183482 0.12102516 0.03419558 0.19911273 -0.05711481 -0.06432847
-0.25139478 -0.16178806 0.14966075 0.029044732 -0.117892325 -0.012032691 -0.14620024 -0.009689273
-0.0933864 0.05757325 -0.01910658 0.044533666 -0.038051654 -0.058028333 -0.14651762 0.1236848
0.1758273 0.3799541 0.018339623 0.16346052 -0.009086545 0.07482513 -0.25150254 0.119748674
-0.036577027 -0.020483201 0.0760966 0.106659524 -0.24560142 -0.10431632 0.011117352 -0.26309174
0.11359322 -0.07705255 0.10407258 0.19152759 -0.20685692 -0.030200914 -0.18213041 -0.18514362
-0.04709287 0.2865336 0.103074424 0.36208868 -0.034188926 0.00021566285 -0.08605004 -0.019872097
0.0393061 -0.049273625 -0.13766804 0.052359194 0.117108144 0.10226164 -0.27052653 -0.115740284
0.033958368 -0.043794196 -0.17507957 0.008900946 -0.035160165 0.09865825 -0.101272605 -0.16845423
0.09173006 0.011288971 0.012844249 -0.14321095 -0.09239247 -0.22961861 0.11584864 0.06435595
0.13357173 0.09957284 -0.013154034 -0.06562967 -0.0829527 -0.29068595 0.101043954 0.019994156
0.055895623 -0.09643375 0.10550551 -0.107919276 -0.07460042 -0.19351533 0.028375983 0.15227166
-0.21283674 -0.3242626 -0.056713317 -0.13790657 0.07526102 0.30919123 -0.043384522 -0.15912607
-0.16833611 -0.1667477 -0.106238976 0.02460708 0.26951352 0.2120906 -0.011100844 0.29396966
0.1628991 -0.10502091 0.11744199 0.13426311 0.003813383 -0.029917581 0.08214943 0.083837695
-0.033839047 -0.12211221 0.017011115 -0.19342425 -0.07035229 0.06657864 0.14326122 -0.11620337
-0.20926744 0.08884514 -0.10465644 0.011453019 -0.11535208 -0.040537316 0.017669786 0.17722954
0.22709566 0.19702332 -0.12100332 -0.0010127254 0.12415007 0.2727449 0.13404366 -0.100334726
-0.08639622 -0.063912936 0.24155188 0.06721909 0.036870576 0.083325624 0.23783827 0.32519493
0.11864108 -0.20316607 0.06377058 -0.33084995 0.1318951 0.040934786 0.14009276 -0.16428502
-0.094195835 0.17428109 0.041143008 0.17517388 -0.3215374 0.0040329807 -0.16537654 0.17420474
-0.32373136 -0.080439605 -0.21829937 -0.26876983 -0.028284688 -0.09716419 0.19128501 -0.2755842
-0.15639737 -0.07612666 0.026940264 -0.17462444 0.059617188 0.09970048 0.19172075 -0.25735724
00000000: 4f64 1b3e 0236 803e b17c 29be 1901 a3bd
00000010: 2b42 da3d 9397 51be ebec 763e 1dfa 1cbd
00000020: d872 9a3c 5532 adbd b5ff 063e 0adc f73d
00000030: aa10 0c3d 35e4 4b3e 38f1 69bd a5be 83bd
00000040: d1b6 80be c5ab 25be ab40 193e 38ef ed3c
00000050: 8871 f1bd c424 45bc 84b5 15be c2bf 1ebc
00000060: 5e41 bfbd eed1 6b3d 6785 9cbc ef68 363d
00000070: 0ddc 1bbd 1eaf 6dbd b708 16be 754e fd3d
00000080: 120c 343e 5889 c23e fa3c 963c 3262 273e
00000090: bbdf 14bc eb3d 993d f1c4 80be cb3e f53d
000000a0: cbd1 15bd 63cc a7bc 89d8 9b3d 4f70 da3d
000000b0: f07e 7bbe cba3 d5bd 8e25 363c f6b3 86be
000000c0: 90a3 e83d bacd 9dbd 0124 d53d cf1f 443e
000000d0: 4dd2 53be e867 f7bc 6580 3abe 4a96 3dbe
000000e0: 74e4 40bd 88b4 923e af18 d33d b063 b93e
000000f0: b009 0cbd 8e23 6239 013b b0bd cfca a2bc
00000100: 6fff 203d 24d3 49bd daf8 0cbe 9876 563d
00000110: 65d6 ef3d 8d6e d13d 7482 8abe 3e09 edbd
00000120: ee17 0b3d 8b61 33bd 0f48 33be 46d5 113c
00000130: 1b04 10bd 560d ca3d 0368 cfbd 447f 2cbe
00000140: f8dc bb3d 60f5 383c af70 523c e4a5 12be
00000150: 4338 bdbd 2421 6bbe 0d42 ed3d 0dcd 833d
00000160: 07c7 083e d8ec cb3d 0484 57bc d968 86bd
00000170: 1be3 a9bd cad4 94be 22f0 ce3d c9ca a33c
00000180: cff2 643d 0f7f c5bd 4613 d83d c804 ddbd
00000190: 1bc8 98bd e228 46be c074 e83c 1aed 1b3e
000001a0: e0f1 59be bf05 a6be 394c 68bd 6137 0dbe
000001b0: 7322 9a3d 504e 9e3e f8b3 31bd f2f1 22be
000001c0: 4d60 2cbe e9bf 2abe d293 d9bd c994 c93c
000001d0: adfd 893e 472e 593e 50e0 35bc 3183 963e
000001e0: 06cf 263e 3415 d7bd 6d85 f03d 457c 093e
000001f0: f3e9 793b b715 f5bc f63d a83d 19b3 ab3d
00000200: d09a 0abd f715 fabd e55a 8b3c 0211 46be
00000210: dd14 90bd 625a 883d 12b3 123e 08fc edbd
00000220: 344a 56be 71f4 b53d 1e56 d6bd 72a5 3b3c
00000230: b63d ecbd 750a 26bd 3ac0 903c a97b 353e
00000240: c48b 683e 7bc0 493e 97d0 f7bd 6dbd 84ba
00000250: 6442 fe3d 38a5 8b3e be42 093e 4b7c cdbd
00000260: 80f0 b0bd c9e4 82bd 6059 773e 2aaa 893d
00000270: 9a05 173d a0a6 aa3d e08b 733e f37f a63e
00000280: 18fa f23d c40a 50be 269a 823d 2a65 a9be
00000290: 820f 073e 3cab 273d 7a74 0f3e 553a 28be
000002a0: bfe9 c0bd be76 323e 9285 283d c860 333e
000002b0: 8da0 a4be 1827 843b 7858 29be ba62 323e
000002c0: 1ec0 a5be 85bd a4bd df89 5fbe 339c 89be
000002d0: 4ab5 e7bc 05fe c6bd 38e0 433e 5f19 8dbe
000002e0: a226 20be 4be8 9bbd d4b1 dc3c c0d0 32be
000002f0: 2731 743d c42f cc3d 7252 443e 54c4 83be

actor.2.bias f4 [3]
-0.00605233 0.010120362 -0.00026678693
00000000: a052 c6bb e0cf 253c 89df 8bb9

critic.0.weight f4 [64, 64]
-0.25190577 0.071796075 0.16956282 0.07331254 -0.052823897 0.30068806 0.009896412 0.009376071
0.049635954 -0.10743129 -0.09297937 0.09682288 0.20591564 0.11793241 -0.10538994 0.19165362
-0.07565713 0.028467895 0.094051056 -0.18543142 -0.08093289 0.079229034 0.044592757 0.1368894
0.040585067 0.06725022 0.08297641 0.038845144 0.18264483 0.0526997 -0.11207759 -0.072865374
-0.041433502 0.042681877 0.05415585 0.16977714 0.22119898 -0.045731008 0.05144168 -0.1558099
-0.24204911 0.19996989 -0.040896025 -0.016849216 0.37613937 0.008730622 0.048800897 -0.16096488
0.025680566 0.036177248 -0.02670614 0.18071608 0.03145198 -0.071851626 -0.121064484 -0.059213854
-0.04252564 -0.08076229 -0.035901997 0.022489393 0.0061220303 0.19883475 -0.057319596 -0.019901874
0.08359538 0.11425942 -0.10811009 0.2674496 0.053724594 0.008587897 -0.43918502 -0.05724735
-0.04746944 0.08831376 0.062032588 -0.03790723 -0.02967171 -0.011571533 -0.14483835 -0.093981855
0.16839568 -0.03342473 -0.037059747 -0.2336023 0.13357355 0.32274485 -0.07053213 0.019198842
-0.038760357 -0.08646163 0.078374065 0.071086556 0.16834117 0.2034964 0.06196759 0.011303459
0.106365986 -0.041567028 0.14564024 -0.0022483289 0.007748788 -0.093329355 0.0048356215 -0.3110653
0.085627705 -0.06499167 -0.07353361 0.004999172 0.13341394 -0.22683188 -0.068510614 0.0771926
-0.0026394238 0.21699646 -0.04089504 -0.10279484 0.014260475 -0.02254411 -0.086277 -0.06409714
-0.09886678 0.110166386 -0.0020656756 -0.016413573 -0.100206025 -0.109241545 0.013887783 -0.12670149
-0.072930224 -0.12232716 0.0831498 0.11359484 0.086171515 0.10045429 -0.30194864 -0.0022769223
-0.034825504 0.044445604 -0.11757219 -0.17529134 -0.16301964 0.0075816535 0.05435665 0.28155667
0.094922975 -0.14437671 -0.0017942667 0.01773489 -0.093856975 0.07047658 0.13596463 0.050670195
0.04297168 -0.119031265 0.008259192 0.012174763 0.10766112 -0.042342532 0.0956482 -0.16075698
-0.039540187 0.09692734 0.1654691 0.10209059 -0.0807183 -0.19306621 -0.10987567 -0.13566644
0.053535704 -0.005493507 -0.01983136 0.116174266 0.07276494 -0.04368902 0.00028288818 0.047589626
0.075760886 0.33661985 0.004070914 0.26990703 0.0051148045 0.04476189 0.2228121 0.073334485
0.11230844 0.1933505 -0.010611155 -0.11292509 -0.1058008 -0.05303183 0.12694223 0.0351485
-0.025593545 0.08874269 0.18855183 -0.08130886 -0.14096183 -0.060611613 -0.11668645 0.092807606
-0.2848468 -0.0042522657 -0.2680121 0.05614205 -0.015987126 -0.04572269 -0.27385113 -0.09667026
0.11550055 0.11834736 0.053878676 0.0075469357 -0.15793711 -0.08853754 -0.0071261628 0.07732948
-0.08932549 0.03792653 -0.06674645 -0.16307616 -0.06733937 0.24345978 -2.3762914e-07 0.049608603
0.07970473 -0.057312552 0.045989703 0.14207748 -0.07012783 -0.02650659 -0.16559875 0.10678553
-0.032428216 -0.04919733 -0.1436119 0.18121563 -0.067454115 -0.026650794 -0.059246056 -0.20752724
-0.14203855 -0.09643309 0.0904412 -0.025473408 0.022082154 -0.12501253 0.20769438 -0.17610447
-0.017957965 0.07502511 0.35447776 -0.051414594 -0.111001745 0.05143305 -0.1006906 -0.068525314
00000000: cbf9 80be d209 933d e0a1 2d3e e324 963d
00000010: df5d 58bd c9f3 993e 8f24 223c 189e 193c
00000020: 124f 4b3d f004 dcbd f86b bebd 134b c63d
00000030: 8ddb 523e 8c86 f13d aed6 d7bd d940 443e
00000040: 20f2 9abd 8135 e93c d79d c03d bce1 3dbe
00000050: 25c0 a5bd d542 a23d e5a6 363d bc2c 0c3e
00000060: 873c 263d 7cba 893d 89ef a93d 161c 1f3d
00000070: 3f07 3b3e a4db 573d ef88 e5bd 713a 95bd
00000080: 2db6 29bd 31d3 2e3d 86d2 5d3d 0fda 2d3e
00000090: fc81 623e 7050 3bbd 83b4 523d a18c 1fbe
000000a0: b9db 77be e8c4 4c3e 9782 27bd 5e07 8abc
000000b0: 5795 c03e e20a 0f3c 73e3 473d fad3 24be
000000c0: 0d60 d23c 982e 143d d6c6 dabc a30d 393e
000000d0: cbd3 003d f226 93bd a8f0 f7bd 3a8a 72bd
000000e0: 5e2f 2ebd b366 a5bd f90d 13bd ad3b b83c
000000f0: 509b c83b 569b 4b3e f4c7 6abd 4109 a3bc
00000100: 0e34 ab3d d800 ea3d d368 ddbd 27ef 883e
00000110: 520e 5c3d 40b4 0c3c dcdc e0be 337c 6abd
00000120: 516f 42bd d8dd b43d e215 7e3d 9d44 1bbd
00000130: 1612 f3bc 8796 3dbc 8150 14be 8f79 c0bd
00000140: eb6f 2c3e 5fe8 08bd f6cb 17bd 7135 6fbe
00000150: 81c7 083e d03e a53e 2673 90bd e446 9d3c
00000160: 2ec3 1ebd cc12 b1bd 9582 a03d d495 913d
00000170: a161 2c3e 5c61 503e bad1 7d3d 2532 393c
00000180: 69d6 d93d 3042 2abd b722 153e b358 13bb
00000190: 8ce9 fd3b 7623 bfbd 2274 9e3b f343 9fbe
000001a0: 945d af3d 5a1a 85bd ca98 96bd 18d0 a33b
000001b0: aa9d 083e 9e46 68be 4b4f 8cbd 2717 9e3d
000001c0: 2ffa 2cbb 5234 5e3e 8f81 27bd 1a86 d2bd
000001d0: c4a4 693c 6dae b8bc ffb1 b0bd 5d45 83bd
000001e0: ab7a cabd ea9e e13d 4960 07bb c275 86bc
000001f0: d138 cdbd 08ba dfbd 9589 633c 09be 01be
00000200: 715c 95bd a986 fabd 714a aa3d 69a4 e83d
00000210: b17a b03d fbba cd3d 0399 9abe 6b38 15bb
00000220: 30a5 0ebd 980c 363d b0c9 f0bd 937f 33be
00000230: 9fee 26be 856f f83b 14a5 5e3d 3228 903e
00000240: fa66 c23d 7dd7 13be 9a2d ebba c348 913c
00000250: 1638 c0bd 0656 903d 503a 0b3e 8d8b 4f3d
00000260: 1303 303d aac6 f3bd 9051 073c a878 473c
00000270: 6f7d dc3d 5d6f 2dbd 34e3 c33d 7a9d 24be
00000280: e4f4 21bd d781 c63d bb70 293e df14 d13d
00000290: a34f a5bd 26b3 45be 7f06 e1bd 25ec 0abe
000002a0: 4148 5b3d e002 b4bb 6075 a2bc c6ec ed3d
000002b0: c905 953d 42f3 32bd 9c50 9439 57ed 423d
000002c0: 8628 9b3d 7059 ac3e 4d65 853b 4131 8a3e
000002d0: 179a a73b 3e58 373d db28 643e 6430 963d
000002e0: f801 e63d acfd 453e 69da 2dbc 4545 e7bd
000002f0: 17ae d8bd e737 59bd 25fd 013e e0f7 0f3d
00000300: 8ea9 d1bc babe b53d bb13 413e 4285 a6bd
00000310: 4c58 10be e243 78bd 4ef9 eebd ea11 be3d
00000320: 71d7 91be 9756 8bbb e238 89be 35f5 653d
00000330: 6ff7 82bc b747 3bbd 3736 8cbe 0ffb c5bd
00000340: 8d8b ec3d 1a60 f23d e3af 5c3d 494c f73b
00000350: 44ba 21be 2b53 b5bd 9682 e9bb eb5e 9e3d
00000360: 48f0 b6bd d958 1b3d 5db2 88bd 70fd 26be
00000370: 39e9 89bd 854d 793e 0027 7fb4 6432 4b3d
00000380: 3c3c a33d 91c0 6abd b35f 3c3d c27c 113e
00000390: 2e9f 8fbd 5924 d9bc b892 29be 5fb2 da3d
000003a0: 73d3 04bd 2483 49bd ff0e 13be 9790 393e
000003b0: 6225 8abd c452 dabc feab 72bd 0582 54be
000003c0: 8e72 11be b67e c5bd 3c39 b93d 9cad d0bc
000003d0: a2e5 b43c 4903 00be d6ad 543e bb54 34be
000003e0: 951c 93bc c4a6 993d 1c7e b53e 1c98 52bd
000003f0: e254 e3bd 76ab 523d e036 cebd 0057 8cbd

critic.0.bias f4 [64]
0.007976366 -0.008814817 -0.026711429 -0.010443677 -0.00975877 0.010519895 -0.008966045 -0.010290524
0.0057692276 -0.011302081 -0.005588119 0.010137928 0.0094612045 -0.010924868 0.009785629 -0.010013049
-0.005766104 -0.009489712 -0.010250422 -0.012560529 0.023678087 -0.009653607 0.010518638 -0.016230257
0.013572002 0.009841357 -0.0012077332 0.00785439 -0.0106912395 0.011362704 0.009454183 0.009352209
0.010201875 0.009667105 0.008482646 0.013239628 0.008965758 0.016165156 -0.010614158 0.010532332
0.0097345915 -0.008073815 0.011747898 -0.012756757 -0.012551275 0.011416881 0.009254389 0.010077175
0.008522082 0.007716861 -0.012521074 -0.0101452 -0.011564897 0.009251017 0.011426394 0.010822075
-0.010878174 -0.0131282285 0.012340123 -0.013764997 -0.01408285 -0.009055777 -0.0027834529 -0.008522798
00000000: 4eaf 023c 066c 10bc edd1 dabc f51b 2bbc
00000010: 3fe3 1fbc a35b 2c3c 52e6 12bc 9699 28bc
00000020: ca0b bd3b 5d2c 39bc 8a1c b7bb 8d19 263c
00000030: 2b03 1b3c 38fe 32bc e753 203c c50d 24bc
00000040: 96f1 bcbb bd7a 1bbc 63f1 27bc adca 4dbc
00000050: 8cf8 c13c 2a2a 1ebc 5e56 2c3c 51f5 84bc
00000060: 1a5d 5e3c a53d 213c cd4c 9eba b3af 003c
00000070: 4f2a 2fbc a32a 3a3c b8e5 1a3c 023a 193c
00000080: c425 273c c762 1e3c ccfa 0a3c 06eb 583c
00000090: 1de5 123c ca6c 843c 01e7 2dbc cd8f 2c3c
000000a0: d67d 1f3c 0948 04bc 417a 403c b801 51bc
000000b0: dda3 4dbc df0d 3b3c b99f 173c bc1a 253c
000000c0: 34a0 0b3c b9dd fc3b 3125 4dbc 0e38 26bc
000000d0: b27a 3dbc 9491 173c c535 3b3c 134f 313c
000000e0: 5e3a 32bc c817 57bc 3a2e 4a3c 9586 61bc
000000f0: c1bb 66bc af5e 14bc 976a 36bb 35a3 0bbc

critic.2.weight f4 [1, 64]
-0.051633384 0.025752448 -0.01024839 0.19527227 0.022208141 -0.1207006 -0.0054430678 0.14207688
-0.02897187 0.13441761 0.014474326 -0.0576292 -0.07222274 0.13865773 -0.16240275 0.036892015
0.049647044 0.071104005 0.090538666 0.05899683 -0.0054063364 0.1647408 -0.16513778 0.26135623
-0.19401625 -0.036946896 0.0021144801 -0.037747446 0.08628202 -0.09045338 -0.05325864 -0.088161714
-0.031469844 -0.113658264 -0.14671496 -0.06834791 -0.11553884 -0.006296968 0.0055143693 -0.08508543
-0.07442834 -0.014419882 -0.066256724 0.15535857 0.034717925 -0.044879545 -0.053120676 -0.18896142
-0.13162224 -0.07324619 0.13208984 0.07351964 0.06960682 -0.07356218 -0.02188804 -0.036204033
0.09999624 0.029884486 -0.05773098 0.12287059 0.034990385 0.095991194 0.0051751984 0.057724174
00000000: 877d 53bd ccf6 d23c dde8 27bc 74f5 473e
00000010: d9ed b53c e031 f7bd c35b b2bb 9a7c 113e
00000020: 6a56 edbc c5a4 093e b925 6d3c 990c 6cbd
00000030: 84e9 93bd 4bfc 0d3e e84c 26be 151c 173d
00000040: b35a 4b3d fa9e 913d 566c b93d a9a6 713d
00000050: a327 b1bb d0b1 283e e119 29be 7cd0 853e
00000060: 32ac 46be a155 17bd 1793 0a3b 119d 1abd
00000070: a1b4 b03d 9f3f b9bd bb25 5abd 218e b4bd
00000080: 86e6 00bd aac5 e8bd 723c 16be fdf9 8bbd
00000090: a19f ecbd cc56 cebb e2b1 b43b 4541 aebd
000000a0: e36d 98bd 5e41 6cbc 9bb1 87bd 5116 1f3e
000000b0: 6234 0e3d 9dd3 37bd 1195 59bd 1a7f 41be
000000c0: fbc7 06be 1902 96bd 8f42 073e 7791 963d
000000d0: 058e 8e3d c5a7 96bd 8c4e b3bc ae4a 14bd
000000e0: d4ca cc3d 4fd0 f43c 5277 6cbd 93a3 fb3d
000000f0: 1452 0f3d 0897 c43d b694 a93b 2f70 6c3d

exp_avg f4 [16, 3, 2, 2]
7.0956085e-05 -1.4279972e-06 4.0571405e-05 -0.00014233495 4.7163376e-05 2.4126784e-05 0.00017464806 0.00010915588
0.0 0.0 0.0 0.0 -0.00019023923 -2.954937e-05 -4.129791e-05 -3.1329073e-05
-5.3910055e-05 3.1555949e-06 -1.3593448e-05 5.177211e-06 0.0 0.0 0.0 0.0
-5.3510885e-06 -7.948778e-05 5.3406093e-05 3.2523283e-05 0.00010156269 7.190774e-05 0.0001861927 0.00018011466
0.0 0.0 0.0 0.0 -3.6417252e-05 1.3403108e-05 3.1195683e-05 1.1087252e-05
4.6003217e-05 1.5967855e-05 0.00012971519 8.763033e-05 0.0 0.0 0.0 0.0
0.00013467002 9.751788e-05 0.00014301151 0.00011503445 0.00031582123 7.8173915e-05 0.00035752883 0.0002432318
0.0 0.0 0.0 0.0 -1.815916e-05 7.430889e-05 -3.584472e-05 -0.00015310608
-1.3772863e-05 2.8530596e-05 -0.000102406746 -0.00013363424 0.0 0.0 0.0 0.0
5.8766047e-05 0.00015899852 0.00010501681 0.00012824593 0.00030681601 0.00035250155 0.00026423874 0.00027041903
0.0 0.0 0.0 0.0 -6.697939e-05 6.0503233e-05 1.3884841e-05 -7.533332e-06
5.1284766e-05 0.00011178975 3.6517875e-05 -7.1063428e-06 0.0 0.0 0.0 0.0
-9.0991074e-05 -2.1803047e-05 -4.075171e-06 -4.470175e-06 -2.9113527e-05 -2.1753818e-05 5.225637e-05 5.1483497e-05
0.0 0.0 0.0 0.0 3.7143294e-05 -4.1741473e-06 4.832762e-05 -4.2868023e-06
0.000154847 -1.7395203e-05 0.00018900543 8.245899e-06 0.0 0.0 0.0 0.0
-7.0117974e-05 -3.480316e-05 -8.685534e-05 -4.6092126e-05 -0.00012935989 -3.2485626e-05 -0.00010021918 -3.4525426e-06
0.0 0.0 0.0 0.0 6.977413e-05 6.325418e-05 4.776625e-05 3.103291e-05
0.0002185812 7.0958675e-05 0.00017542332 4.610198e-06 0.0 0.0 0.0 0.0
-6.452496e-05 -1.9626037e-05 -4.06641e-05 0.0001036501 -4.931868e-05 -0.00017483337 -1.8462466e-05 -9.322499e-05
0.0 0.0 0.0 0.0 5.0737515e-05 -1.8584526e-05 0.00013123384 6.027941e-06
0.00012670254 9.8973585e-05 3.6811318e-05 -1.6504237e-05 0.0 0.0 0.0 0.0
9.543346e-06 1.8356037e-07 3.841725e-05 6.5943146e-05 -4.2193176e-05 -0.0001836477 3.2721677e-05 -9.102308e-05
0.0 0.0 0.0 0.0 6e-45 6e-45 6e-45 6e-45
0.0 6e-45 0.0 0.0 0.0 0.0 0.0 0.0
00000000: 42ce 9438 9ca9 bfb5 372b 2a38 bf3f 15b9
00000010: 4ad1 4538 e063 ca37 bb21 3739 9eea e438
00000020: 0000 0000 0000 0000 0000 0000 0000 0000
00000030: f47a 47b9 cae0 f7b7 4b37 2db8 5667 03b8
00000040: 7b1d 62b8 b5c4 5336 6a0f 64b7 e7b7 ad36
00000050: 0000 0000 0000 0000 0000 0000 0000 0000
00000060: 808d b3b6 adb2 a6b8 5b00 6038 9c69 0838
00000070: 0efe d438 2dcd 9638 b93c 4339 29dd 3c39
00000080: 0000 0000 0000 0000 0000 0000 0000 0000
00000090: babe 18b8 e9dd 6037 1cd8 0238 6203 3a37
000000a0: 94f3 4038 b5f2 8537 2804 0839 2dc6 b738
000000b0: 0000 0000 0000 0000 0000 0000 0000 0000
000000c0: 3536 0d39 8382 cc38 5cf5 1539 a63e f138
000000d0: cf94 a539 4df1 a338 b572 bb39 0a0c 7f39
000000e0: 0000 0000 0000 0000 0000 0000 0000 0000
000000f0: 8054 98b7 48d6 9b38 fa57 16b8 1a8b 20b9
00000100: ff11 67b7 fd54 ef37 34c3 d6b8 2b20 0cb9
00000110: 0000 0000 0000 0000 0000 0000 0000 0000
00000120: 907b 7638 d7b8 2639 783c dc38 c179 0639
00000130: 26dc a039 f5cf b839 8689 8a39 07c7 8d39
00000140: 0000 0000 0000 0000 0000 0000 0000 0000
00000150: 4977 8cb8 dac4 7d38 f0f2 6837 d4c6 fcb6
00000160: 991a 5738 aa70 ea38 c52a 1938 0573 eeb6
00000170: 0000 0000 0000 0000 0000 0000 0000 0000
00000180: 76d2 beb8 b0e5 b6b7 74bd 88b6 83fe 95b6
00000190: d338 f4b7 f87b b6b7 da2d 5b38 fcef 5738
000001a0: 0000 0000 0000 0000 0000 0000 0000 0000
000001b0: 4fca 1b38 a70f 8cb6 63b3 4a38 5ad7 8fb6
000001c0: 6d5e 2239 eaeb 91b7 c22f 4639 de57 0a37
000001d0: 0000 0000 0000 0000 0000 0000 0000 0000
000001e0: 4d0c 93b8 9cf9 11b8 1b26 b6b8 0b53 41b8
000001f0: c8a4 07b9 2d41 08b8 c32c d2b8 3bb2 67b6
00000200: 0000 0000 0000 0000 0000 0000 0000 0000
00000210: b353 9238 54a7 8438 9f58 4838 5529 0238
00000220: f232 6539 a6cf 9438 d7f1 3739 4db1 9a36
00000230: 0000 0000 0000 0000 0000 0000 0000 0000
00000240: 9351 87b8 98a2 a4b7 bf8e 2ab8 b95e d938
00000250: 88db 4eb8 7a53 37b9 d8df 9ab7 c981 c3b8
00000260: 0000 0000 0000 0000 0000 0000 0000 0000
00000270: fece 5438 f7e5 9bb7 d19b 0939 9e43 ca36
00000280: 74db 0439 0a90 cf38 da65 1a38 9472 8ab7
00000290: 0000 0000 0000 0000 0000 0000 0000 0000
000002a0: 5c1c 2037 b118 4534 3522 2138 f54a 8a38
000002b0: 94f8 30b8 8e91 40b9 a23e 0938 a5e3 beb8
000002c0: 0000 0000 0000 0000 0000 0000 0000 0000
000002d0: 0400 0000 0400 0000 0400 0000 0400 0000
000002e0: 0000 0000 0400 0000 0000 0000 0000 0000
000002f0: 0000 0000 0000 0000 0000 0000 0000 0000
